hw3/checkpoints/rnn.pt (torch, 737678 bytes, 29 tensors)

model_state f4 [100, 78]
0	0xbf2202ef	-0.63285726
1	0xbf81833d	-1.0118176
2	0xbfe53450	-1.790659
3	0x3f0a09e8	0.53921366
4	0xbee4b227	-0.4466717
5	0x3ec5c1a0	0.38624287
6	0xc007296c	-2.1119032
7	0xbea44844	-0.32086384
8	0xbf8751a1	-1.0571786
9	0x3f012765	0.50450736
10	0xc02ca695	-2.6976674
11	0xbe95ecb4	-0.29282153
12	0xbf31b87f	-0.69422144
13	0xbdafa8f9	-0.08577151
14	0xbe7e1257	-0.24811684
15	0xbe1b520b	-0.15168016
16	0xbf449030	-0.7678251
17	0xbf61aac1	-0.88151175
18	0x3f0b3d5a	0.5439049
19	0xbf919127	-1.1372422
20	0x3e17066f	0.14748548
21	0x3ffbf6b9	1.9684669
22	0xbf6e4a20	-0.93081856
23	0xbf78388e	-0.96961296
24	0xbfb6883f	-1.4260329
25	0xbe7bd6b5	-0.24593623
26	0xbf85e617	-1.0460843
27	0xbf9b2e27	-1.212346
28	0xbecb4fb6	-0.39709252
29	0xbeeebaae	-0.466268
30	0xbf4277f1	-0.75964266
31	0xbfea28a8	-1.8293657
32	0x3e61514d	0.2200367
33	0xbfc4cdac	-1.5375266
34	0xbff6bdbf	-1.9276656
35	0xc015b830	-2.339367
36	0xbef51228	-0.47865415
37	0x3ffe0fc6	1.9848564
38	0xc02df309	-2.7179587
39	0xc089de26	-4.3083677
40	0x3eb4867d	0.35258856
41	0xbe6c54f2	-0.23079279
42	0xbf3b3aad	-0.7313641
43	0x3e6578c7	0.22409354
44	0x3fba0e61	1.4535638
45	0xbfa0a7fd	-1.2551266
46	0xbfb89597	-1.4420651
47	0x3d92d562	0.07169606
48	0x3f632636	0.8873018
49	0x3ff2fcdd	1.8983418
50	0xc0536b50	-3.3034248
51	0xbf6f147b	-0.93390626
52	0x40048cf8	2.071104
53	0x3eb754e4	0.35806954
54	0x3f6f91ce	0.93581855
55	0x3f9bbd1a	1.2167084
56	0xbdd330f5	-0.10312072
57	0x3e5c38ab	0.21505992
58	0xc02457c4	-2.5678568
59	0xbf71c941	-0.94447714
60	0xbfe8f34c	-1.8199248
61	0x3fc84963	1.5647396
62	0xbd73c3f0	-0.059513032
63	0xbe6f42fe	-0.23365399
64	0xbfd38071	-1.6523572
65	0xbeb5f234	-0.3553635
66	0xbf2a0190	-0.66408634
67	0xbf792d93	-0.97335166
68	0x3ee90333	0.45510253
69	0xbc9cf0eb	-0.019157847
70	0xbf3abd54	-0.7294514
71	0xbecc0637	-0.39848492
72	0xbf8f59ff	-1.119934
73	0x3e237241	0.15961553
74	0x3e6f0234	0.23340684
75	0x3ef39244	0.4757253
76	0x4037585c	2.864768
77	0x40336b37	2.8034189
78	0xbd8d241f	-0.06891655
79	0xbfd371f2	-1.6519148
80	0xc01e603f	-2.4746244
81	0x40164531	2.347973
82	0x3ea28226	0.3173992
83	0x402c4a69	2.6920416
84	0x3ec07d48	0.37595582
85	0x3e7a0eb1	0.24419667
86	0x3f044a47	0.5167584
87	0xbe7f9c7f	-0.24962042
88	0xc009d75f	-2.1537702
89	0xbf0de5fc	-0.55429053
90	0xc0396525	-2.8967984
91	0xbff3156b	-1.8990911
92	0xbfbbcf0b	-1.467256
93	0xbf44ed6d	-0.76924783
94	0xbff51b0d	-1.914888
95	0xc00ac6a2	-2.1683736
96	0xbf4dea5d	-0.80435735
97	0x3df9a0e2	0.12188889
98	0xbf778313	-0.9668438
99	0x3f92f1d5	1.1480051
100	0x3f8995a1	1.0748788
101	0xbeea1034	-0.45715487
102	0xbe9174fa	-0.2840956
103	0xbf8e8ab8	-1.1136084
104	0xbf45adb3	-0.7721817
105	0xbed9506d	-0.42444173
106	0x3e9400a2	0.28906733
107	0xc03824a7	-2.877237
108	0xbfd5b91b	-1.6697115
109	0x3ff4398a	1.908006
110	0xbfaacb18	-1.3343229
111	0xbffa8861	-1.957287
112	0xbf91c98c	-1.1389632
113	0xbe9bb71f	-0.30413148
114	0xbf14df15	-0.58152896
115	0xbef49ed0	-0.47777414
116	0xbf3fd429	-0.74933106
117	0xbce34f8c	-0.027747892
118	0xbf4dc70d	-0.8038185
119	0x40327920	2.788643
120	0xbdf0a7f5	-0.11750785
121	0x3f0b643e	0.5444983
122	0x3e778ab2	0.24174002
123	0xbe97230c	-0.29518926
124	0x3eeeba97	0.46626732
125	0xc03caaf8	-2.947935
126	0xbfe689e8	-1.8010836
127	0x3e9fcd04	0.31211102
128	0x3f45bab3	0.77238005
129	0x3f1c9985	0.6117175
130	0xbf897d00	-1.0741272
131	0xbf9e371e	-1.236057
132	0x3f122f17	0.57103103
133	0xc06e9270	-3.7276878
134	0x3db49c91	0.08818925
135	0x3d1c3813	0.038139414
136	0x3f128d33	0.572467
137	0x3feab88d	1.833757
138	0x3e0478b4	0.1293667
139	0x3f029d0f	0.510209
140	0x3fe45ef1	1.7841474
141	0xc033c555	-2.8089192
142	0xbdb02edc	-0.08602688
143	0x3f0c3bba	0.54778636
144	0x3e98efd1	0.29870465
145	0xbf71d8fd	-0.9447172
146	0x3e7b6fa6	0.24554309
147	0x3fdb2379	1.71202
148	0xbe879e79	-0.26488093
149	0x3f3a9572	0.72884285
150	0xbddbdb6a	-0.10735209
151	0x3fe1f767	1.7653626
152	0x3fca5478	1.5807028
153	0xc008d229	-2.1378272
154	0xbe6e9414	-0.23298675
155	0x4021798b	2.5230434
156	0xc07009c3	-3.7505958
157	0xc0108153	-2.2578933
158	0xbfb16a30	-1.3860531
159	0x3d5752e4	0.052569285
160	0x3f04848f	0.5176477
161	0xbfffc58a	-1.9982159
162	0xbff9a9ca	-1.950494
163	0xbfa03fad	-1.2519432
164	0x3d9ec9ef	0.077533595
165	0xbfaa2ad7	-1.3294324
166	0xc01ea9ca	-2.479113
167	0xbe636236	-0.22205433
168	0x3e5f3f0c	0.21801394
169	0x3fb52f50	1.4155064
170	0xbeebeec6	-0.46080607
171	0x3e97d80e	0.29657024
172	0xbdc305d5	-0.09522597
173	0xbe2e07a1	-0.16995098
174	0x3e5f2012	0.21789578
175	0x3f081a1d	0.53164846
176	0x3f9c3da1	1.2206308
177	0x3f8d2e01	1.1029664
178	0xc01cf361	-2.4523547
179	0xbf4c0882	-0.7970048
180	0xbf8bd892	-1.0925467
181	0xbe61903b	-0.22027676
182	0xbf3e1e92	-0.74265397
183	0x3f9bafa7	1.216298
184	0x3f6faf18	0.93626547
185	0x3f9c45dd	1.220882
186	0x3fbd90f6	1.4809864
187	0x3f89abd0	1.0755558
188	0x3f4cd427	0.8001122
189	0xbfa254df	-1.2682151
190	0x3f9d9b5d	1.2313038
191	0xbff384b1	-1.9024869
192	0xc025111e	-2.5791698
193	0xbf6da01b	-0.92822427
194	0xbbbd17b8	-0.0057706498
195	0x3f74e12a	0.95656073
196	0xbff6e026	-1.9287155
197	0xbfc37c9a	-1.52724
198	0xbf121436	-0.5706209
199	0x3f79f6b7	0.9764208
200	0xc004e4d7	-2.0764673
201	0xc0174833	-2.3637817
202	0x3fa78c79	1.3089744
203	0x3f0d922f	0.55301183
204	0xc00e9a74	-2.228177
205	0x3f983848	1.1892176
206	0x3f9a006e	1.2031381
207	0xbff7d696	-1.9362361
208	0xbed16abf	-0.40901753
209	0xbf778fec	-0.9670398
210	0xbf5183aa	-0.8184153
211	0xc0816593	-4.043649
212	0x3f5d71c2	0.86501706
213	0x3eef6cde	0.46762747
214	0x3f529c44	0.8226969
215	0x3fe7c862	1.8108027
216	0xbfb65c89	-1.424699
217	0x3fc66a5e	1.5501211
218	0xbe29240a	-0.16517654
219	0xbe0e58ad	-0.13901015
220	0xbfa0c386	-1.2559669
221	0x3f6def7c	0.9294355
222	0xbe616aa7	-0.22013341
223	0xbfe795b6	-1.8092563
224	0xbec0a436	-0.37625283
225	0x3fd55302	1.6665957
226	0xbf891641	-1.0709916
227	0xbfdaaaa0	-1.7083321
228	0x3f09944c	0.5374191
229	0x3f711040	0.9416542
230	0x3fde68a2	1.7375681
231	0xc0b3fbc7	-5.6244845
232	0x3e98805a	0.29785424
233	0xbf559c43	-0.8344156
234	0x3fbdcf18	1.4828825
235	0xc008a842	-2.1352696
236	0xc0a6ec81	-5.21637
237	0x3feacedd	1.834438
238	0x3ed747c6	0.42046946
239	0xbfc1c640	-1.5138626
240	0x3f840626	1.0314376
241	0x3f969dc8	1.1766901
242	0xc01bd3d7	-2.4348047
243	0xbfb25055	-1.3930765
244	0xc045874e	-3.0863833
245	0x3d5785c9	0.05261782
246	0x3e960835	0.29303136
247	0x3de6ffd3	0.11279263
248	0x3eccdc53	0.40011844
249	0x3e06c63a	0.13161555
250	0xbdd2a801	-0.102859505
251	0xbe1fe462	-0.15614465
252	0x3ea81a16	0.32832402
253	0xbda13559	-0.078715034
254	0x3e70f8ff	0.23532484
255	0xbfeeb945	-1.865029

model_state f4 [100, 78]
0	0xbfbfb64b	-1.4977506
1	0xbf96d2da	-1.1783097
2	0xbf05e7a0	-0.52306557
3	0x40054835	2.0825322
4	0xbf834d6c	-1.0258002
5	0xbfef4ad1	-1.8694707
6	0x3f2a2a4f	0.6647081
7	0x3f19bc51	0.60052973
8	0xbf36e694	-0.71445584
9	0xc0263365	-2.5968869
10	0xbfeebd78	-1.8651571
11	0x3e48fed6	0.19628462
12	0xbddeac88	-0.108727515
13	0x3edf2454	0.43582404
14	0x3ec9e8d6	0.39435452
15	0xbe6155bc	-0.22005361
16	0x3eaeeab7	0.34163448
17	0x3db59b03	0.08867457
18	0xbe070005	-0.13183601
19	0x3dc62d9b	0.09676667
20	0xbe95c8f7	-0.29254887
21	0xbd8f604e	-0.070007905
22	0xbfc25559	-1.5182296
23	0xbefadc58	-0.48996234
24	0xbf508152	-0.8144733
25	0xbf5ac744	-0.85460305
26	0xc000bbbe	-2.0114589
27	0x3e81c612	0.25346428
28	0xbf7cd905	-0.98768646
29	0x3ea5e6d0	0.32402658
30	0x3f329154	0.69753003
31	0xbf81c786	-1.0139015
32	0x3de28d95	0.11062161
33	0xbff80c50	-1.9378757
34	0x3df19d07	0.11797529
35	0xbe108268	-0.14112246
36	0xbe25269f	-0.16128014
37	0xc094256b	-4.6295676
38	0xbd4219ac	-0.047387764
39	0xc014bf9c	-2.324195
40	0xbf2040bb	-0.6259877
41	0x3f6166f7	0.88047737
42	0xbfadb235	-1.357001
43	0xbfa61c1e	-1.2977331
44	0x3f1dcd0f	0.6164102
45	0x3e82cc41	0.25546458
46	0xbead82ee	-0.33888954
47	0x401057d1	2.25536
48	0xbfa90529	-1.32047
49	0xbdc29034	-0.09500161
50	0xbf52bebe	-0.823223
51	0x3dc916cd	0.09818802
52	0x3f3c61ca	0.73586714
53	0xbf2643e9	-0.6494737
54	0xbfe39a19	-1.7781402
55	0xbe04faf1	-0.12986352
56	0x3d61c33b	0.055117827
57	0x3f1df247	0.6169781
58	0x3faf19a7	1.3679703
59	0x3fb5e7c8	1.4211359
60	0x3de970ee	0.11398493
61	0x402fef5d	2.7489846
62	0x40577074	3.3662386
63	0x3f0629bf	0.5240745
64	0xbf99dffd	-1.2021481
65	0x3dc4cb92	0.096091405
66	0x3f069b3c	0.5258062
67	0x3f87ab3d	1.0599133
68	0x3ede082d	0.43365613
69	0xbfc0b35e	-1.5054739
70	0xbf07c357	-0.5303244
71	0x3e469293	0.19391851
72	0xc00ba3d2	-2.1818738
73	0x3e1a7eae	0.15087387
74	0x3fcfe975	1.624312
75	0x40654374	3.582242
76	0xbf15e464	-0.5855162
77	0x401a4be8	2.410883
78	0x3b55c9d5	0.0032621522
79	0xc00fe267	-2.2481935
80	0x3ef08179	0.4697378
81	0x3f525cc1	0.8217278
82	0x3ee962be	0.45583147
83	0x3ff91327	1.945897
84	0xbef83b43	-0.48482713
85	0xbf4ea6c6	-0.80723226
86	0xbf00fe9b	-0.503885
87	0xbf02682b	-0.509402
88	0x3f638c22	0.888857
89	0x3d917f37	0.071043424
90	0xbf286eec	-0.65794253
91	0xbec51cbc	-0.38498485
92	0xbef32582	-0.47489554
93	0xbe261ecc	-0.16222686
94	0xbf65ad58	-0.89717627
95	0xbfea12a9	-1.8286945
96	0xbe002b58	-0.12516534
97	0xbf33d12c	-0.70241046
98	0xbedc0d14	-0.42978728
99	0xbf2bea2f	-0.6715421
100	0xbfcac4ac	-1.584127
101	0xbfb67281	-1.4253694
102	0x3efb59d4	0.4909197
103	0xbf84e5cb	-1.0382627
104	0xbf7fe517	-0.9995894
105	0xbf4ed989	-0.8080068
106	0x3e4eb6b7	0.20186888
107	0xbd885697	-0.06657141
108	0x3f1effa6	0.6210884
109	0x3ebe6cd3	0.371924
110	0xbf80d639	-1.0065376
111	0x3f36abbf	0.71355814
112	0x3f331ddd	0.6996744
113	0xbea3ae00	-0.3196869
114	0x3e466a70	0.1937654
115	0x3f4ce3d6	0.8003515
116	0xc0309155	-2.7588704
117	0xc0274c06	-2.614015
118	0xbfc27850	-1.5192966
119	0xbf0c07fd	-0.5469969
120	0xbef1dc8f	-0.47238585
121	0x3eafba1d	0.3432168
122	0x3dd45a5d	0.10368798
123	0x3f8653b9	1.04943
124	0x3e9bab6a	0.30404216
125	0xbff85ea9	-1.9403888
126	0xc01cb2b1	-2.4484065
127	0xbed1c06d	-0.40967122
128	0xbfbfc0ff	-1.4980773
129	0x3e98a4ff	0.29813382
130	0xbe0f7da6	-0.14012775
131	0xbfd0fd38	-1.6327276
132	0xbee26ccb	-0.44223627
133	0xbf4167fb	-0.75549287
134	0x3f30af40	0.6901741
135	0x3faf06ec	1.3673987
136	0xbef6c894	-0.48199904
137	0x3eeb5027	0.4595959
138	0xc0bbdfd1	-5.8710713
139	0xc04e5090	-3.2236671
140	0x3f360ad4	0.7111027
141	0xc0828cb0	-4.079674
142	0xbe2015f0	-0.15633368
143	0x3f8baba2	1.0911753
144	0x3e458b34	0.19291383
145	0xbf678b79	-0.90447193
146	0xbff4b6bb	-1.9118265
147	0xbe86c7e3	-0.26324376
148	0x3f1fe443	0.62457675
149	0x3f1cd70a	0.61265624
150	0x3fb1765f	1.3864249
151	0xbf7d81bb	-0.9902608
152	0xc09d72e3	-4.9202743
153	0xbf4b590f	-0.7943277
154	0x3ef3b2be	0.47597307
155	0xbfa7171b	-1.3053926
156	0xc02dbc24	-2.7146082
157	0xc011f42d	-2.2805283
158	0xbd188c27	-0.037243035
159	0xc005772f	-2.0853994
160	0xbf9b0380	-1.2110443
161	0x3fd43746	1.6579368
162	0x400261f6	2.037229
163	0xbf3bc922	-0.7335378
164	0xc0144483	-2.3166816
165	0xbf9fc73d	-1.2482678
166	0xc0245864	-2.567895
167	0xbdaa54fb	-0.0831699
168	0x3e38e566	0.18056259
169	0xbeb56a7e	-0.3543281
170	0xbf32c17f	-0.698265
171	0x3e903e62	0.28172594
172	0xbf4299dd	-0.76016027
173	0xbf6fb878	-0.9364085
174	0x3e67165f	0.22567128
175	0x3dcaf1c1	0.09909392
176	0xbf687aa4	-0.90812135
177	0xbf3c34f4	-0.735183
178	0xbfff8d9f	-1.9965094
179	0xbf88d516	-1.0690029
180	0xbf70df4f	-0.9409074
181	0xc03a71b4	-2.91319
182	0xbf97cb6b	-1.1858953
183	0xbfed35ac	-1.8532004
184	0x3f8e2f2d	1.1108147
185	0xbefa0bdb	-0.4883717
186	0xbfa2ba84	-1.271317
187	0x3f8acb08	1.084321
188	0xbf75a4d7	-0.9595465
189	0xbfefee24	-1.874455
190	0x3f6e0f3c	0.92991996
191	0xbe1990ec	-0.1499669
192	0x3f804f53	1.0024208
193	0x3d612f5c	0.054976806
194	0xbe97d2ee	-0.29653114
195	0xbfd7d7e3	-1.6862758
196	0x3f13db6e	0.577567
197	0xbf57ca8b	-0.8429343
198	0x3dbedbf3	0.09319296
199	0x3f18c50a	0.5967566
200	0xbfcaf9a2	-1.5857432
201	0xbf780305	-0.9687961
202	0x3fcd7f5f	1.6054496
203	0xbfb433f2	-1.4078352
204	0xc00ec7b5	-2.2309391
205	0xbe2c7084	-0.16839796
206	0xbf5a8243	-0.85355014
207	0xbeddd2bf	-0.4332485
208	0xbf0d5f1a	-0.5522324
209	0x3f3b376c	0.7313144
210	0xc08de756	-4.4344893
211	0xc1115f82	-9.085817
212	0x3fb1fe6e	1.3905771
213	0xbee914ff	-0.4552383
214	0x3f090b45	0.5353282
215	0x3f09103d	0.535404
216	0xbfcf04da	-1.6173356
217	0xc068dae5	-3.6383603
218	0xbfbe5b43	-1.4871601
219	0xc0af3005	-5.4746118
220	0xbc943e19	-0.018096017
221	0x3fadf286	1.3589637
222	0x3e6e646b	0.23280494
223	0xbe44a9f9	-0.19205464
224	0xbfea8b87	-1.832383
225	0xbf79fd16	-0.97651803
226	0x3e25dae4	0.16196781
227	0x3fa50c19	1.2894317
228	0xbfe7f6fc	-1.8122249
229	0x3f020904	0.50795007
230	0xc096c5ef	-4.711662
231	0xbed0ad96	-0.40757436
232	0x3dd6d298	0.10489386
233	0xc0106d03	-2.2566535
234	0xc00e27ce	-2.2211795
235	0xc07b46a0	-3.9261856
236	0xbf6a82f2	-0.91606057
237	0xbe362263	-0.17786555
238	0xbf8a977a	-1.0827477
239	0xbe85c54b	-0.26127085
240	0xc028c0e9	-2.6367743
241	0x3f768c4b	0.9630782
242	0xbff1ff90	-1.8906116
243	0xc045aa42	-3.0885167
244	0xc00bfaa8	-2.1871738
245	0x3dab5903	0.08366587
246	0xbda7155e	-0.08158372
247	0xbefcd627	-0.49382135
248	0xbe80fe29	-0.2519391
249	0xbed36142	-0.4128514
250	0xbedcc9a4	-0.4312259
251	0x3eb4470b	0.3521045
252	0x3f49be36	0.78805864
253	0xbde495fe	-0.11161421
254	0x3f108b86	0.56462896
255	0xc0044f1e	-2.067329

model_state f4 [100, 78]
0	0x3d8c8ae2	0.06862427
1	0x3d8d51a3	0.069003366
2	0x3f665e16	0.89987314
3	0xbef123b2	-0.47097546
4	0xbe7f00e9	-0.24902691
5	0x3e73fe8d	0.23827572
6	0x3c865333	0.016397094
7	0xbb665012	-0.003514294
8	0xbdf0ccc3	-0.11757805
9	0xbead999d	-0.3390626
10	0x3e81f621	0.25383094
11	0xbee60f5c	-0.44933593
12	0x3eb9577d	0.3619956
13	0x3ee14345	0.43996635
14	0x3f3df35e	0.74199474
15	0x3e1ec900	0.15506363
16	0x3e37c30d	0.179455
17	0x3ab1269c	0.0013515535
18	0x3e80ce59	0.2515743
19	0x3f1d996b	0.6156222
20	0x3ed22f8c	0.410519
21	0x3e8af365	0.2713882
22	0x3df4d91b	0.11955472
23	0x3e9b1729	0.30291107
24	0xbe79a7d3	-0.24380426
25	0xbe43c432	-0.19117811
26	0xbf5c1cad	-0.85981256
27	0xbeeee6c3	-0.46660432
28	0xbe90c1fe	-0.28273004
29	0xbddddd0f	-0.10833179
30	0xbf473263	-0.7781126
31	0xbf1fed25	-0.6247123
32	0xbf35c71d	-0.7100695
33	0xbf12c937	-0.5733828
34	0xbecaa1e5	-0.3957664
35	0xbe230cf0	-0.15922904
36	0xbead0773	-0.33794746
37	0xbed09f29	-0.4074643
38	0xbe0e6855	-0.13906987
39	0xbdcd2661	-0.10017086
40	0x3dd8b869	0.105820484
41	0xbe986963	-0.29767904
42	0x3d37121f	0.044695016
43	0xbf01c05c	-0.5068414
44	0xbf1e7e2f	-0.6191129
45	0xbe0ae976	-0.13565621
46	0xbe66b38a	-0.22529426
47	0xbeafe397	-0.34353325
48	0x3dbe1be4	0.092826635
49	0xbf985827	-1.1901902
50	0xc00f4008	-2.2382832
51	0x3f47cd38	0.78047514
52	0x3f1bd3fa	0.60870326
53	0x3ef73443	0.4828206
54	0xbea0284d	-0.31280747
55	0x3dc0ed8b	0.09420308
56	0x3e613a22	0.21994832
57	0x3f0a9553	0.541341
58	0xbe5814bd	-0.21101661
59	0xbe06f5ed	-0.1317975
60	0x3d8f50e7	0.06997853
61	0x3ec923ef	0.39285228
62	0xbeff648e	-0.49881405
63	0x3ed43a3b	0.41450676
64	0x3e239292	0.15973881
65	0xbdde2e30	-0.10848653
66	0x3f82fe13	1.0233787
67	0x3d936533	0.071970366
68	0x3ffe9be3	1.9891323
69	0x3e869a76	0.2628972
70	0x3ed6f658	0.4198482
71	0x3dbe98cb	0.09306487
72	0xbe0f13cc	-0.13972396
73	0xbca42401	-0.0200367
74	0x3eb32b9a	0.34994203
75	0xbe524919	-0.20535697
76	0x3f91f27a	1.1402123
77	0x3eab987b	0.3351477
78	0xbea82702	-0.3284226
79	0xbece7537	-0.40323803
80	0x3ebe6d20	0.3719263
81	0x3f9f5a6e	1.2449472
82	0xbe5145ed	-0.20436831
83	0xbee615b7	-0.44938442
84	0xbf8cb96e	-1.0994089
85	0x3ec9e79e	0.39434522
86	0xbec4dcaf	-0.38449618
87	0xbe87c305	-0.26515976
88	0x3fe4aeee	1.7865884
89	0xbd0175ad	-0.031606365
90	0x401164bd	2.2717736
91	0x3fe85e03	1.815369
92	0x400afca8	2.171671
93	0x3f35e5f2	0.71053994
94	0x3eb8bbf7	0.36080906
95	0x3e3680e0	0.178226
96	0x3f97ed3d	1.1869274
97	0xbd552fc8	-0.05204752
98	0xbeb789b1	-0.35847238
99	0x3f6af372	0.9177772
100	0xbe16cf8c	-0.1472761
101	0x3fa1df13	1.2646202
102	0x3e6e678e	0.2328169
103	0xbe4ba229	-0.19886078
104	0xbf3ce013	-0.7377941
105	0x3e782863	0.24234156
106	0xbd9c25a4	-0.07624367
107	0xbe95d358	-0.29262805
108	0xbe89ffee	-0.2695307
109	0xbefc51ba	-0.49281102
110	0x3f9add19	1.2098724
111	0x3fcb75a7	1.589528
112	0xbf8848bd	-1.0647198
113	0x3e4cb88c	0.19992274
114	0xbe5fcb8d	-0.21854992
115	0x3e9303b4	0.28713763
116	0x3ebd79a8	0.3700688
117	0x3e4015eb	0.18758361
118	0x3e079f2d	0.13244314
119	0xbd4f015a	-0.0505384
120	0xbe4063ee	-0.1878812
121	0xbe60f26b	-0.21967475
122	0xbf352e1e	-0.70773494
123	0x3f13936c	0.5764682
124	0xbe6f218c	-0.23352641
125	0x3e6d6e4c	0.23186606
126	0x3f0d5f7a	0.5522381
127	0x3d9d5ccc	0.07683715
128	0xbd15cb19	-0.036570642
129	0x3f79bb4c	0.9755142
130	0x3cf9c486	0.030489217
131	0xbe60c821	-0.21951343
132	0xbe93215d	-0.28736392
133	0xbc2fa6e0	-0.010720938
134	0x3d0650dc	0.032791957
135	0xbdc91a0a	-0.0981942
136	0x3ea89818	0.32928538
137	0x3e746e67	0.2387024
138	0xbbe167df	-0.0068788375
139	0xbdf34ae2	-0.11879517
140	0xbe497513	-0.19673567
141	0xbe8ad62a	-0.2711652
142	0xba386d13	-0.00070352963
143	0xbd7f0fbf	-0.062270876
144	0x3e9171a4	0.28407013
145	0x38d2bd98	0.00010048895
146	0x3f652b6f	0.895194
147	0xbe3c8043	-0.18408303
148	0x3d71f9ab	0.059075993
149	0xbd1c0f17	-0.03810033
150	0xbe696c32	-0.2279518
151	0xbe387883	-0.18014722
152	0x3e60a10c	0.21936435
153	0x3e1e9d65	0.15489729
154	0x3f91b334	1.1382813
155	0xbdd3fd43	-0.1035104
156	0xbfbf3334	-1.4937501
157	0x3e141b0d	0.14463444
158	0xbec46466	-0.38357848
159	0x3f3f1125	0.74635535
160	0xbe1e3a04	-0.15451819
161	0x3da28a77	0.07936566
162	0xbe123d09	-0.14281096
163	0xbf417612	-0.75570786
164	0x3dbfdab8	0.09367889
165	0x3e0328c6	0.12808523
166	0xbf7bba99	-0.983316
167	0xbf9981b4	-1.1992707
168	0x3dab5497	0.083657436
169	0x3dd68484	0.10474494
170	0x3deca370	0.11554611
171	0x3e49b08b	0.19696252
172	0xbef72778	-0.482723
173	0x3ead1496	0.33804768
174	0x3e594df7	0.21221147
175	0xbedb384a	-0.42816383
176	0xbf34eabf	-0.70670694
177	0xbf07dcf2	-0.5307151
178	0xbecde051	-0.40210202
179	0xbeeda095	-0.46411577
180	0x3eae9348	0.34096742
181	0xbcd52313	-0.026017701
182	0xbf0828ce	-0.53187263
183	0xbdec802b	-0.115478836
184	0x3f119873	0.56873244
185	0x3da57d2d	0.08080516
186	0x3e0df535	0.1386307
187	0xbeb6e717	-0.35723183
188	0x3ec79a0d	0.3898472
189	0xbe55de86	-0.20885667
190	0xbe0cd0cf	-0.13751529
191	0x3f1c3eeb	0.61033505
192	0x3e030663	0.12795405
193	0xbdfabec8	-0.1224342
194	0x3e3365db	0.17519324
195	0x3e87b63b	0.26506218
196	0x3ebf3a9a	0.37349397
197	0xbd1a887d	-0.03772782
198	0xbcd09f69	-0.025466638
199	0x3e4929cf	0.19644855
200	0x3ee884af	0.4541373
201	0x3d873371	0.066016085
202	0x3d9d83c3	0.07691147
203	0x3ef6cf00	0.48204803
204	0x3cf3d6fe	0.029765602
205	0x3f28e7b2	0.6597854
206	0xbf119ad6	-0.56876886
207	0x3f2501ed	0.64456064
208	0x3e955820	0.29168797
209	0xbdd5a57f	-0.104319565
210	0xbf035bc5	-0.51311904
211	0x3d1358a2	0.0359732
212	0x3f6f84bb	0.93561906
213	0x3ce28427	0.027650906
214	0xbec8e845	-0.39239708
215	0xbeb1b48e	-0.34708065
216	0x3e0b461b	0.13600962
217	0xbf00d0e4	-0.5031874
218	0xbeac5f5b	-0.336665
219	0x3e9629b1	0.29328683
220	0xbdf6efc4	-0.120574504
221	0xbe142978	-0.14468944
222	0xbef7cbe5	-0.48397747
223	0x3d544361	0.05182207
224	0xbe31ab4f	-0.17350505
225	0xbe1fb9d2	-0.15598229
226	0xbeee45bb	-0.46537575
227	0x3e3a5934	0.18198091
228	0xbd4b56a3	-0.04964317
229	0xbebbe690	-0.36699343
230	0xbda704d1	-0.081552155
231	0x3cb1f6de	0.02172416
232	0xbdb32056	-0.08746402
233	0x3ced8b6a	0.028997142
234	0xbec524bd	-0.38504592
235	0xbd0338bb	-0.032036524
236	0x4027f3be	2.6242518
237	0x3fc22078	1.5166159
238	0x3ecad609	0.3961642
239	0x3f2b93b6	0.67022264
240	0xbbae75bc	-0.0053240936
241	0x3d45cc40	0.04829049
242	0x3f927a86	1.1443641
243	0x3f5f5eaf	0.8725385
244	0x3f99bc77	1.201064
245	0xbf174713	-0.59092826
246	0xbd544973	-0.05182786
247	0xbf1f9203	-0.6233217
248	0xbdbcb33d	-0.092138745
249	0x3f00e851	0.50354487
250	0x3dd40231	0.103519805
251	0x3e91b574	0.2845875
252	0x3def3f8d	0.11682043
253	0x3ecd7e11	0.40135244
254	0x3ed411d0	0.4141984
255	0x3fe30551	1.7735997

model_state f4 [100, 100]
0	0xbbdfdb60	-0.0068315715
1	0xbd4e7cbe	-0.050411932
2	0xbdc87fd1	-0.09790004
3	0x3f09469c	0.53623366
4	0x3e255681	0.1614628
5	0xbec19160	-0.37806225
6	0x3da49097	0.08035391
7	0x3dfcec27	0.1234973
8	0xbde6be61	-0.11266781
9	0x3f1e8921	0.6192799
10	0xbe11dceb	-0.1424443
11	0xbf2d3f60	-0.6767483
12	0xbfab54d7	-1.3385266
13	0x3f30e1bd	0.6909445
14	0x3f3f66e9	0.74766403
15	0x3f6747cf	0.90343946
16	0xbea88c8e	-0.32919735
17	0x3f1f77bd	0.6229208
18	0xbf2882c8	-0.65824556
19	0xbef65cf9	-0.48117808
20	0x3f0ff1d4	0.56228375
21	0xbcc7c518	-0.024385974
22	0xbf3b70bd	-0.732189
23	0x3e2a5ff5	0.16638167
24	0x3f8ed953	1.1160072
25	0xbe897f36	-0.26854867
26	0x3f471e3d	0.77780515
27	0x3ccf4ca9	0.02530511
28	0xbda2222e	-0.079166755
29	0x3e80ce5c	0.2515744
30	0x3e136952	0.14395645
31	0xbe07948a	-0.13240257
32	0xbbab5439	-0.005228546
33	0xbe583ec8	-0.21117699
34	0x3e41c58b	0.18923013
35	0xbf3ab581	-0.72933203
36	0xbf16cbdb	-0.5890481
37	0xbe9a14d8	-0.30094028
38	0xbe67e7d0	-0.22647023
39	0x3f8facf8	1.1224661
40	0xbf0f7025	-0.56030494
41	0xbf96ddf8	-1.178649
42	0xbd6a3cd9	-0.057186935
43	0x3f67a8fb	0.9049222
44	0x3f1401b3	0.5781509
45	0x3e84434d	0.25832596
46	0x3f4ed990	0.80800724
47	0xbf74ae7f	-0.9557876
48	0xbf1feb49	-0.6246839
49	0x3e6106d6	0.21975264
50	0xbf116727	-0.56798023
51	0xbef09510	-0.46988726
52	0x3f5a8075	0.8535226
53	0x3f3dc98d	0.7413567
54	0xbd79ba2d	-0.060968567
55	0xbe431614	-0.19051391
56	0xbf0f73f1	-0.5603629
57	0xbf8d8f68	-1.1059389
58	0xbea80f3b	-0.3282412
59	0xbf61c16a	-0.8818575
60	0x3f3bf3db	0.7341897
61	0xbf189986	-0.5960926
62	0xbf7c3f38	-0.98533964
63	0xbf0198ae	-0.50623596
64	0x3f33785d	0.70105535
65	0xbf141047	-0.5783734
66	0xbdcffc91	-0.10155595
67	0xbe844858	-0.25836444
68	0x3e1123a4	0.14173752
69	0x3f15385b	0.58289117
70	0xbf770e7e	-0.9650649
71	0x3ec5c052	0.3862329
72	0x3e26bcb6	0.16282925
73	0x3f7ca07b	0.98682374
74	0xbd44b1b1	-0.048021022
75	0x3f4dc421	0.80377394
76	0x3e5035ba	0.20332995
77	0x3f5511c0	0.8323021
78	0x3d8eaf16	0.06966989
79	0xbf189cd2	-0.5961429
80	0xbe785338	-0.24250495
81	0xbdae8c89	-0.08522899
82	0xbdeb4978	-0.114886224
83	0x3f018ec9	0.506085
84	0x3c4fa56f	0.01267372
85	0x3e3db679	0.18526639
86	0x3e1e8e92	0.15484074
87	0x3ed096df	0.40740106
88	0x3f0eb3f9	0.55743366
89	0x3f3e34b2	0.74299157
90	0xbf4c5a30	-0.79825115
91	0xbaf1d12f	-0.0018449182
92	0xbe9543e6	-0.29153365
93	0x3edfb162	0.4369002
94	0xbe2f7db1	-0.17137791
95	0xbf501bda	-0.812925
96	0x3ebbc79f	0.36675736
97	0xbeb49ed9	-0.3527744
98	0xbf1e376b	-0.6180331
99	0xbf625bdf	-0.88421434
100	0x3dc92065	0.09820632
101	0x3f0965b3	0.53670806
102	0x3ef472ae	0.47743744
103	0x3d6e8538	0.058232516
104	0xbf689034	-0.90845037
105	0x3f063f63	0.5244047
106	0xbeff9884	-0.49921048
107	0x3dc8b2cf	0.0979973
108	0x3e7a4d73	0.24443607
109	0x3ebb0275	0.36525312
110	0xbe64bbfb	-0.22337334
111	0x3f389b46	0.7211193
112	0xbf1d0e1a	-0.6134964
113	0x3e1d753d	0.15376754
114	0xbe17166d	-0.14754649
115	0x3ead99e1	0.33906463
116	0x3e175c1a	0.14781228
117	0x3ee73eaf	0.4516501
118	0xbfbbb791	-1.4665395
119	0xbda8a997	-0.08235472
120	0x3e8cbba7	0.27486917
121	0x3e290b5a	0.16508237
122	0xbea86543	-0.32889757
123	0x3da2a901	0.07942391
124	0x3e616878	0.22012508
125	0x3ea10562	0.3144942
126	0x3e141177	0.14459787
127	0xbed8fcfc	-0.42380512
128	0x3f80c199	1.0059081
129	0xbebf7f64	-0.3740188
130	0x3ee2598f	0.44208953
131	0xbe9c3099	-0.30505827
132	0x3e30fbc7	0.17283545
133	0x3db776ab	0.08958181
134	0x3e79aa35	0.24381335
135	0x3e2727ff	0.16323851
136	0xbed1deb2	-0.40990216
137	0x3d616afc	0.05503367
138	0x3f4f881b	0.81067055
139	0x3eb0570b	0.3444141
140	0x3f26297a	0.6490704
141	0x3f0fa78b	0.56115025
142	0x3f1a454d	0.60261995
143	0x3e468686	0.19387254
144	0xbcfa2e7a	-0.03053974
145	0xbca0d946	-0.019634854
146	0x3e7c8680	0.24660683
147	0x3dafc343	0.08582165
148	0xbf5a7502	-0.8533479
149	0xbe5a064c	-0.21291465
150	0xbf477fcb	-0.7792937
151	0x3e207a46	0.15671644
152	0x3d29b69e	0.041433923
153	0xbd231308	-0.03981307
154	0xbe2abd8e	-0.16673872
155	0xbf3c991a	-0.73671114
156	0xbf0d7dee	-0.5527028
157	0xbee5633f	-0.4480228
158	0x3e08fbee	0.13377354
159	0xbf026d40	-0.5094795
160	0x3e980fc5	0.2969953
161	0x3ef0a54e	0.47001117
162	0xbf807e3d	-1.0038525
163	0x3e478e37	0.19487844
164	0x3ed47028	0.41491818
165	0x3c2addbd	0.010428843
166	0xbf7f13d4	-0.9963963
167	0xbf255ae4	-0.64591813
168	0xbf32afe1	-0.6979962
169	0x3f3c5727	0.73570484
170	0xbf327815	-0.6971448
171	0xbe86a12d	-0.26294842
172	0xbcb79ab1	-0.02241263
173	0xbe2f29ef	-0.1710584
174	0xbe17df3d	-0.14831252
175	0xbe4a96b3	-0.1978405
176	0xbe50dd38	-0.20396888
177	0xbcc297b7	-0.023753984
178	0xbe9f83c0	-0.31155205
179	0x3e3f9607	0.18709575
180	0x3d9fd624	0.07804516
181	0x3e88e5f1	0.2673793
182	0x3f13b981	0.5770493
183	0x3ed0fe48	0.40819
184	0x3e4935a6	0.19649372
185	0xbf24e22e	-0.6440762
186	0x3ca0fa51	0.01965061
187	0xbeaddcea	-0.33957607
188	0xbeba73f1	-0.3641658
189	0x3e324a2a	0.17411104
190	0xbe796b86	-0.24357423
191	0xbace666a	-0.0015747075
192	0x3f32e3cf	0.6987886
193	0xbe1bb108	-0.15204251
194	0x3c7e12a8	0.015507378
195	0x3edbcf9c	0.4293183
196	0x3f32c71e	0.6983508
197	0xbefa259e	-0.48856825
198	0x3c33bebf	0.01097077
199	0xbf2ba67b	-0.67050904
200	0xbdafe8b5	-0.08589307
201	0xbe86ebf8	-0.26351905
202	0x3e90e468	0.2829926
203	0xbe9550ff	-0.29163358
204	0x3f0dfe18	0.5546584
205	0x3ec309b0	0.38093328
206	0x3f332737	0.6998171
207	0xbd16c2b6	-0.036806785
208	0xbf79eca3	-0.97626704
209	0xbf6aef0e	-0.9177102
210	0x3e8cc677	0.27495167
211	0xbdde88b5	-0.108659185
212	0xbf031193	-0.5119869
213	0x3d7c0b73	0.061534356
214	0xbee0c67e	-0.43901438
215	0xbe5cd2ee	-0.21564838
216	0xbf756eb9	-0.95872074
217	0xbecddcab	-0.4020742
218	0xbe8a160b	-0.26969942
219	0xbe3ab19b	-0.18231814
220	0x3eaf1dc9	0.34202412
221	0x3e23a73b	0.15981762
222	0xbf2fb23b	-0.68631333
223	0xbf5ac17a	-0.8545147
224	0xbe07fe8a	-0.13280693
225	0xbe414243	-0.18872933
226	0xbd814437	-0.06311839
227	0xbd4083c7	-0.047000673
228	0x3d9b94af	0.075967185
229	0x3ecfbe96	0.40575093
230	0x3f3dfe94	0.7421658
231	0x3f57266a	0.8404299
232	0x3f2471c8	0.64236116
233	0x3ea69c52	0.32541138
234	0x3f8d7990	1.1052723
235	0x3cd97a37	0.026547534
236	0xbf5c0b8d	-0.85955125
237	0xbf681e23	-0.90670985
238	0x3ea68b6b	0.32528242
239	0x3ccb20bc	0.024795882
240	0xbec0a329	-0.3762448
241	0xbf784341	-0.9697762
242	0x3f2f44fb	0.6846463
243	0x3f82107a	1.0161278
244	0x3eab9e2b	0.3351911
245	0x3e905766	0.2819168
246	0x3edf3f49	0.4360297
247	0x3e681f76	0.22668251
248	0xbe9a4f6e	-0.30138725
249	0x3e2979ae	0.16550323
250	0xbf18bfa8	-0.59667444
251	0x3e4f87c7	0.20266639
252	0xbeacce9e	-0.33751386
253	0x3e4c855b	0.19972746
254	0xbea824ff	-0.32840726
255	0x3e52decf	0.20592807

model_state f4 [100]
0	0xbf88412c	-1.0644889
1	0xbf2c6499	-0.67341
2	0xbf34c7da	-0.7061745
3	0xbf468c97	-0.77558273
4	0xbfcf8b48	-1.621438
5	0xbe362816	-0.17788729
6	0xbe602e93	-0.21892767
7	0xbf859984	-1.0437474
8	0xbf115af6	-0.5677942
9	0xbf91066f	-1.1330088
10	0xbf507a47	-0.8143658
11	0xbf9fb0fe	-1.2475889
12	0xbf95fc28	-1.1717577
13	0xbf5075f9	-0.8143001
14	0xbf6425c2	-0.89120114
15	0xbf192aa8	-0.59830713
16	0xbf2ec492	-0.6826869
17	0x3e208194	0.1567443
18	0xbe7546b7	-0.23952757
19	0xbf7e01c4	-0.99221444
20	0xbf9eb109	-1.2397777
21	0xbf010466	-0.50397336
22	0xbfa54825	-1.2912642
23	0xbf12eb55	-0.5739034
24	0xbf661a49	-0.8988386
25	0xbf779530	-0.9671202
26	0xbf3eb63a	-0.74496806
27	0xbf4d5f2a	-0.80223334
28	0xbf0dc934	-0.55385137
29	0xbfa111ce	-1.2583559
30	0xbf31ba00	-0.6942444
31	0xbf4d9dfd	-0.80319196
32	0xbf5e50d1	-0.86842066
33	0xbf5a564a	-0.85287917
34	0xbf505586	-0.813805
35	0xbee2ace7	-0.4427254
36	0xbf71ca9f	-0.944498
37	0xbf6c749a	-0.9236542
38	0xbfabe804	-1.343018
39	0xbf9a8264	-1.2071042
40	0xbf1d8f21	-0.6154652
41	0xbf9f1c97	-1.24306
42	0xbfb7d8eb	-1.4363073
43	0xbf3ef0f2	-0.74586403
44	0xbf0fbb42	-0.5614511
45	0xbf504c24	-0.8136618
46	0xbfafe5ba	-1.3741982
47	0xbefee0a5	-0.49780765
48	0xbfc9b375	-1.5757891
49	0xbf411652	-0.75424683
50	0xbecc5c63	-0.39914235
51	0xbf88aaf0	-1.0677166
52	0xbf40c183	-0.75295275
53	0xbf41fa39	-0.75772434
54	0xbfb1efb5	-1.3901278
55	0xbf804c2b	-1.0023245
56	0xbf414c3d	-0.75506955
57	0xbedcfb1d	-0.43160334
58	0xbf04c24f	-0.5185899
59	0xbf2af014	-0.6677258
60	0xbf7989be	-0.974758
61	0xbf79aade	-0.9752635
62	0xbf4e91a6	-0.8069099
63	0xbf5b9ab0	-0.8578291
64	0xbcd15e61	-0.025557699
65	0xbf9907cc	-1.1955504
66	0xbf8f3533	-1.118811
67	0xbf0e04b7	-0.55475944
68	0xbf8d9f46	-1.1064231
69	0xbe9120fa	-0.28345472
70	0x3ef65b86	0.48116702
71	0xbeac7951	-0.33686307
72	0xbef9d370	-0.48794127
73	0x3ecb1a45	0.3966848
74	0xbf4c7152	-0.79860413
75	0xbec3df03	-0.38256082
76	0xbf81970e	-1.0124223
77	0xbf373184	-0.7155993
78	0xbe8a029f	-0.26955125
79	0xbf1f0553	-0.621175
80	0xbfbe51b9	-1.486869
81	0xbf8f6fb4	-1.1205964
82	0xbf5d4bbb	-0.8644368
83	0xbf45964c	-0.7718246
84	0xbfa90a9b	-1.3206362
85	0xbefed9f9	-0.49775675
86	0xbf63b98d	-0.88955003
87	0xbf54e8d0	-0.83167744
88	0xbf686b2e	-0.90788543
89	0xbe051bb6	-0.12998852
90	0xbded709d	-0.11593745
91	0xbeeced9b	-0.4627503
92	0xbf60d712	-0.8782817
93	0xbf38d66a	-0.7220217
94	0xbee03bb9	-0.43795565
95	0xbee8225c	-0.45338714
96	0xbf054f51	-0.5207415
97	0xbed7551b	-0.42057118
98	0xbefd3b85	-0.49459472
99	0xbf02b433	-0.5105621

model_state f4 [100, 100]
0	0xbf7a68b7	-0.9781603
1	0xbe727ebe	-0.23681161
2	0x3e7e655c	0.24843353
3	0x3e2026e7	0.1563984
4	0xbed47c6d	-0.4150118
5	0x3e27794e	0.16354868
6	0xbf56f92a	-0.83973944
7	0x3e37c256	0.17945227
8	0xbf15481b	-0.5831315
9	0xbf14c4a2	-0.5811254
10	0xbf22a588	-0.6353383
11	0x3ec9dbc8	0.39425492
12	0x3da18852	0.07887329
13	0x3d20cb01	0.0392561
14	0x3f5ee297	0.870645
15	0x3e534e8d	0.20635433
16	0xbebe8140	-0.37207985
17	0x3f94295e	1.1575124
18	0xbdb609a7	-0.0888856
19	0x3eface7b	0.48985657
20	0xbebcd66b	-0.36882338
21	0xbe0af736	-0.13570866
22	0x3e755058	0.2395643
23	0x3e97d014	0.2965094
24	0x3e79247d	0.24330325
25	0x3df993b6	0.12186377
26	0xbe50214c	-0.20325202
27	0xbd5f5fb7	-0.05453464
28	0xbd1e3d53	-0.038632702
29	0xbe8cfd97	-0.27537224
30	0xbf0b61ed	-0.544463
31	0xbf6700f3	-0.90235823
32	0xbf51c70d	-0.8194435
33	0x3e6c410b	0.23071687
34	0x3e3ebad4	0.18625957
35	0xbf17a28f	-0.5923242
36	0xbeb26f63	-0.34850606
37	0x3f3b1b8c	0.7308891
38	0x3e9634f9	0.2933729
39	0x3e400aec	0.18754166
40	0xbd418e61	-0.047254924
41	0xbf1d8e30	-0.61545086
42	0x3cbb2438	0.022844419
43	0x3ea71207	0.3263094
44	0x3f00059e	0.5000857
45	0xbc09990e	-0.0083983075
46	0x3e9f988f	0.3117108
47	0x3f4bae53	0.7956287
48	0xbf20a9f7	-0.62759346
49	0xbe2fc48e	-0.17164823
50	0x3ca3f8a3	0.02001602
51	0xbf5bbd96	-0.8583616
52	0xbf8ddf61	-1.1083795
53	0x3e73377c	0.23751634
54	0xbd1e3407	-0.038623836
55	0x3ef8a25c	0.4856137
56	0xbea08ca4	-0.313573
57	0x3f22ba2e	0.6356534
58	0x3e61bf68	0.22045672
59	0xbe8ed52d	-0.27897015
60	0xbdd497b1	-0.10380495
61	0xbf042f2b	-0.5163447
62	0xbd0fbe44	-0.03509356
63	0x3ee43081	0.44568256
64	0x3f08070e	0.53135765
65	0xbf31ac21	-0.6940327
66	0x3f09b5ef	0.53793234
67	0xbe8ee603	-0.2790986
68	0xbe928c56	-0.28622693
69	0x3f850705	1.0392767
70	0xbf87ae03	-1.0599979
71	0x3f214743	0.6299936
72	0x3ea4ef53	0.3221384
73	0x3f65dbfa	0.8978878
74	0x3e1343f6	0.14381394
75	0x3eab0319	0.334008
76	0xbe431fb9	-0.1905507
77	0x3ebdf9a1	0.37104514
78	0x3ef79295	0.4835402
79	0xbe66dc09	-0.22544874
80	0x3f276340	0.6538582
81	0xbd12f754	-0.0358804
82	0xbf086fa2	-0.5329534
83	0x3e88517a	0.26624662
84	0xbf331098	-0.69947195
85	0xbf4760b7	-0.7788195
86	0x3e9ec5ff	0.31010434
87	0x3e3414f8	0.17586124
88	0x3da23f1f	0.07922196
89	0x3e59c01e	0.21264693
90	0x3f521b6b	0.82073087
91	0x3e279ef7	0.16369234
92	0xbccc7c94	-0.024961747
93	0x3eb8df00	0.36107635
94	0xbd99a905	-0.07502941
95	0xbf380918	-0.71888876
96	0xbf372435	-0.7153962
97	0xbeba8bf8	-0.36434913
98	0xbdb91f6e	-0.09039198
99	0xbf67f108	-0.9060216
100	0xbf00d5e8	-0.50326395
101	0x3ef88e7c	0.48546207
102	0x3e11a308	0.14222348
103	0xbe08cef5	-0.13360198
104	0x3f060103	0.52345294
105	0x3e2cf7c1	0.16891386
106	0xbf04507f	-0.5168533
107	0x3ef81973	0.48456916
108	0x3dbb8100	0.09155464
109	0x3f06a95d	0.5260218
110	0x3dfd3af8	0.12364763
111	0xbe434fd1	-0.19073416
112	0xbf7a995e	-0.9789027
113	0xbe8eb660	-0.27873516
114	0x3e4c2ce2	0.19938996
115	0x3d14afcf	0.036300477
116	0xbe44ef3b	-0.19231884
117	0x3f612d80	0.8796005
118	0xbf6e3bd4	-0.9306004
119	0xbdb448e1	-0.08802963
120	0xbf613bc6	-0.8798183
121	0x3f49e4c4	0.78864694
122	0xbe112118	-0.1417278
123	0xbdb5f301	-0.0888424
124	0x3ea98429	0.33108643
125	0x3d90cec3	0.07070687
126	0xbcb7bfe6	-0.022430371
127	0x3d83ed68	0.06441766
128	0xbf7e2b0c	-0.99284434
129	0xbf6a9f09	-0.9164892
130	0xbf3ee613	-0.74569815
131	0x3da720b6	0.08160536
132	0x3df6c5be	0.12049435
133	0x3dbd21fd	0.092349984
134	0x3df14d86	0.117823645
135	0x3e3a452c	0.1819045
136	0xbdcea327	-0.100897126
137	0xbed3a593	-0.4133726
138	0x3e03cded	0.12871523
139	0x3f1175ad	0.56820184
140	0x3d066962	0.032815345
141	0xbeca6995	-0.39533678
142	0x3dfbf61d	0.12302802
143	0x3f1077d2	0.5643283
144	0xbcce82da	-0.02520888
145	0xbf023e65	-0.50876456
146	0x3f07159e	0.5276736
147	0x3d19d2e7	0.037554648
148	0xbf3eb4ca	-0.7449461
149	0xbe08e693	-0.13369207
150	0xbf06f372	-0.5271522
151	0x3cfe107f	0.031013725
152	0xbd1979d9	-0.03746972
153	0xbbd125ea	-0.0063826935
154	0xbf164931	-0.5870543
155	0xbe1916c3	-0.14950089
156	0x3e701ad6	0.23447737
157	0x3bea9a60	0.007159516
158	0x3e1009c8	0.14066231
159	0x3ebba3b8	0.36648345
160	0xbecda9af	-0.4016852
161	0x3e8ea878	0.27862906
162	0xbe451a94	-0.1924842
163	0x3f588a60	0.84586143
164	0x3e7001d0	0.23438191
165	0xbecbcc40	-0.39804268
166	0xbe67c9ff	-0.22635649
167	0x3ea5126b	0.32240614
168	0xbee02bfe	-0.43783563
169	0xbd564860	-0.052315116
170	0xbf584b4e	-0.84489906
171	0xbeea3a2d	-0.4574751
172	0xbcaf214a	-0.021378178
173	0x3e1b0ea4	0.15142304
174	0x3d69d291	0.057085577
175	0xbe0cd632	-0.13753584
176	0x3eb37203	0.35047922
177	0xbf0244e9	-0.508864
178	0x3e2cbbc4	0.16868502
179	0xbb887cf1	-0.004165285
180	0x3ee809f0	0.45320082
181	0x3e995ea7	0.29955027
182	0x3d8e9d59	0.069636054
183	0x3db5758b	0.0886031
184	0xbe7eb640	-0.2487421
185	0x3d56c322	0.052432187
186	0xbc8d319c	-0.01723557
187	0x3ebfbb58	0.3744762
188	0x3d5cd511	0.053914133
189	0x3edc5cc6	0.4303953
190	0x3e224c5c	0.15849441
191	0x3f2ab7b2	0.66686547
192	0x3f5788df	0.84193224
193	0x3e9ec271	0.31007722
194	0x3ef013f5	0.46890226
195	0xbdc389c7	-0.09547763
196	0x3e166a9d	0.14689107
197	0x3dacbed6	0.084348366
198	0x3da1635a	0.07880278
199	0xbfa63f50	-1.2988071
200	0xbe247d2f	-0.16063379
201	0xbeb3e86a	-0.35138255
202	0x3d96c72a	0.07362206
203	0x3e3264a9	0.17421211
204	0xbe759443	-0.23982339
205	0x3f17cd2c	0.5929744
206	0xbf24153b	-0.64094895
207	0xbf0d179a	-0.5511414
208	0x3dd3a427	0.10334044
209	0xbf839014	-1.0278344
210	0x3eb66fcb	0.35632166
211	0xbd348d57	-0.044080105
212	0xbe152e8d	-0.14568539
213	0x3d751b54	0.059840515
214	0x3ee2ed94	0.44321883
215	0x3ef669a1	0.48127463
216	0xbef3ea26	-0.4763958
217	0x3d238f4e	0.039931588
218	0xbf68057a	-0.90633357
219	0xbea69c48	-0.32541108
220	0x3c8c11ac	0.01709827
221	0x3f83f93d	1.0310436
222	0xbe2afc94	-0.16697913
223	0xbecc0091	-0.39844182
224	0x3e9c3acc	0.30513608
225	0x3e677e5b	0.22606795
226	0x3f193986	0.598534
227	0x3e31f9d8	0.17380464
228	0xbf2affe4	-0.6679671
229	0x3d03d15e	0.03218209
230	0x3ee7b031	0.4525161
231	0xbe3ae951	-0.18253066
232	0xbe9b88ce	-0.3037781
233	0x3eea15df	0.4571981
234	0x3f0229fa	0.508453
235	0x3d70e5bc	0.05881284
236	0xbed3a06b	-0.41333327
237	0x3ec51a07	0.3849642
238	0xbd6d0635	-0.057867248
239	0x3e448db5	0.19194682
240	0x3ef10012	0.47070366
241	0xbf11d63f	-0.5696754
242	0x3d5d3cdd	0.054013122
243	0x3f16fb73	0.5897743
244	0x3ec76373	0.3894306
245	0x3e89a378	0.2688253
246	0xbec087fa	-0.37603742
247	0xbde33b92	-0.110953465
248	0xbf8d2eca	-1.1029904
249	0x3e262ef1	0.16228844
250	0xbef6b899	-0.48187712
251	0x3e2931b5	0.16522868
252	0xbe6b2de6	-0.22966728
253	0x3e0aeac6	0.13566121
254	0x3d2541b4	0.040345863
255	0xbe8ad116	-0.27112645

model_state f4 [100]
0	0xbf4fd79f	-0.81188387
1	0xbf5ad6ff	-0.8548431
2	0xbf8bc415	-1.0919214
3	0xbf8b504a	-1.0883877
4	0xbfad3001	-1.3530275
5	0xbfcef335	-1.6167971
6	0xbf9b832a	-1.2149403
7	0xbf9a6819	-1.2063018
8	0xbf8f8aef	-1.1214274
9	0xbf6d7496	-0.9275602
10	0xbf87a0e3	-1.0595974
11	0xbf5ac2ce	-0.854535
12	0xbf9e6fbc	-1.2377849
13	0xbf3aa8ba	-0.72913706
14	0xbfc9a361	-1.5752984
15	0xbf98e25b	-1.1944078
16	0xbfb2277f	-1.3918303
17	0xbf918ad7	-1.1370496
18	0xbf55f5fe	-0.8357848
19	0xbf41f4c9	-0.7576414
20	0xbf9adbb1	-1.2098294
21	0xbf826ef4	-1.019011
22	0xbf8fe84c	-1.1242766
23	0xbf56d4dc	-0.8391855
24	0xbfa38000	-1.2773438
25	0xbf1573a7	-0.58379596
26	0xbf198f66	-0.59984434
27	0xbf96d7c7	-1.17846
28	0xbf9500f5	-1.1640917
29	0xbf768095	-0.9628995
30	0xbf759497	-0.95929855
31	0xbf944a1e	-1.1585119
32	0xbf9436ac	-1.1579185
33	0xbf5adfa3	-0.8549749
34	0xbf9eca83	-1.2405552
35	0xbfbaa598	-1.4581785
36	0xbf5ef93e	-0.87099063
37	0xbf96d7b1	-1.1784574
38	0xbf8f8dbf	-1.1215132
39	0xbf6a7315	-0.9158185
40	0xbf953b6f	-1.1658763
41	0xbf946bea	-1.1595433
42	0xbf4773a0	-0.77910805
43	0xbfbce2a0	-1.475666
44	0xbf880925	-1.0627791
45	0xbf7da315	-0.9907697
46	0xbf8960da	-1.0732682
47	0xbf689f64	-0.9086821
48	0xbf9a00d9	-1.2031509
49	0xbfb7d77c	-1.4362636
50	0xbf806e54	-1.003367
51	0xbfafc586	-1.3732154
52	0xbf7e881c	-0.99426436
53	0xbf953a03	-1.1658329
54	0xbfb8ecdb	-1.4447283
55	0xbfa32e6c	-1.2748542
56	0xbfa499f8	-1.2859488
57	0xbfad51d6	-1.3540599
58	0xbfa2ddb7	-1.2723912
59	0xbf8a36fa	-1.0798028
60	0xbfa172e4	-1.2613187
61	0xbf8bbdcb	-1.0917295
62	0xbfa73d65	-1.3065611
63	0xbf20750e	-0.6267861
64	0xbfa0bdec	-1.255796
65	0xbf90c351	-1.1309606
66	0xbfbdb99e	-1.4822271
67	0xbf9adf19	-1.2099334
68	0xbf93acc9	-1.1537105
69	0xbfb89a61	-1.4422113
70	0xbfcd352f	-1.6031855
71	0xbfad0255	-1.3516337
72	0xbf8f082c	-1.1174369
73	0xbf5d4b08	-0.86442614
74	0xbf856abc	-1.0423198
75	0xbf364f7a	-0.7121502
76	0xbfbad557	-1.4596356
77	0xbf1f9c01	-0.6234742
78	0xbf7d6aa8	-0.9899087
79	0xbf9392ee	-1.1529214
80	0xbf64aa01	-0.89321905
81	0xbf9d8a20	-1.2307777
82	0xbfa99556	-1.3248699
83	0xbf9fcb1f	-1.2483863
84	0xbf931275	-1.1490008
85	0xbfafbdfd	-1.3729855
86	0xbf87b94a	-1.0603421
87	0xbfa41f76	-1.2822101
88	0xbfad6c2e	-1.3548639
89	0xbf9858ac	-1.190206
90	0xbfaaf617	-1.3356351
91	0xbf9cda7e	-1.2254179
92	0xbfc1421c	-1.50983
93	0xbfa3caa9	-1.2796222
94	0xbfb0daff	-1.3816832
95	0xbf691aea	-0.9105669
96	0xbf887164	-1.0659604
97	0xbf8f3d9f	-1.119068
98	0xbf98a59a	-1.1925538
99	0xbfc4bbef	-1.5369853

model_state f4 [100, 100]
0	0xbf5740b2	-0.8408309
1	0x3f35a963	0.7096159
2	0x3d7408ad	0.059578586
3	0x3ed8b109	0.42322567
4	0xbdae83b0	-0.08521211
5	0x3def34db	0.11680003
6	0x3e246615	0.16054566
7	0xbe64a6fa	-0.22329322
8	0xbe58d800	-0.21176147
9	0xbdf5e371	-0.12006272
10	0xbe75224f	-0.23938869
11	0x3e9e7377	0.30947468
12	0x398d93a0	0.00027003605
13	0x3df964fa	0.12177463
14	0x3dbfc2c3	0.0936332
15	0x3cabd779	0.020976769
16	0x3dd2ae66	0.1028717
17	0x39161b4e	0.00014315287
18	0x3daae591	0.083445676
19	0xbc2e6863	-0.010645005
20	0x3d929934	0.071581274
21	0x3e24574a	0.16048923
22	0xbddc46be	-0.107556805
23	0xbe5619ea	-0.20908323
24	0x3ed885ba	0.42289525
25	0xbf302101	-0.6880036
26	0xbe7c4805	-0.24636848
27	0xbda962d1	-0.08270801
28	0x3eec0959	0.46100882
29	0x3e990f08	0.2989428
30	0xbe4737b7	-0.19454847
31	0xbe71992a	-0.23593584
32	0x3ed25ae6	0.41084975
33	0x3e74a846	0.23892316
34	0xbdac2859	-0.08406133
35	0xbdd5f9cd	-0.10448036
36	0xbf378a65	-0.7169555
37	0x3ed43ab7	0.41451046
38	0x3f149c65	0.5805114
39	0x3d711f15	0.058867533
40	0xbedd4e6a	-0.43223888
41	0x3e819e4b	0.2531608
42	0x3ef8150c	0.48453557
43	0xbae7b7b7	-0.0017678653
44	0xbe266388	-0.16248906
45	0x3d2d206d	0.04226725
46	0xbf07c1d5	-0.5303014
47	0x3e2fc728	0.17165816
48	0xbd0071a9	-0.031358395
49	0xbecd9a7a	-0.4015692
50	0xbd6dcb2f	-0.0580551
51	0x3ea8270b	0.32842287
52	0xbef62b8f	-0.48080108
53	0xbd4f1e9d	-0.050566304
54	0xbf04c9dd	-0.5187052
55	0xbbfa8870	-0.007645659
56	0x3d88c858	0.066788375
57	0x3d9a6a0a	0.075397566
58	0x3e0db029	0.13836731
59	0xbeb0c54f	-0.34525535
60	0xbd356066	-0.044281386
61	0x3ee1aa3a	0.44075185
62	0x3e17464e	0.14772913
63	0xbf022fac	-0.5085399
64	0x3eb57fd1	0.3544908
65	0xbdce3fa3	-0.100707315
66	0x3dae580b	0.085128866
67	0xbf7927c9	-0.9732633
68	0xbf1486dd	-0.58018285
69	0x3e80c326	0.25148886
70	0xbf6a01dc	-0.9140909
71	0x3f081fbd	0.5317343
72	0x3cd34e69	0.025794225
73	0x3f551986	0.8324207
74	0xbee565b5	-0.4480416
75	0xbee986b0	-0.4561057
76	0x3e91dacf	0.2848725
77	0x3ed000dc	0.40625656
78	0x3f572e1f	0.8405475
79	0xbd0b749d	-0.034046758
80	0xbdbd27ab	-0.09236082
81	0xbe9c71c6	-0.30555552
82	0x3ddbcec4	0.10732797
83	0x3eb1b0c1	0.34705165
84	0x3c0807a2	0.008302601
85	0x3e816139	0.25269488
86	0x3e540ae7	0.20707284
87	0x3e766f19	0.24065818
88	0xbeee142c	-0.46499765
89	0xbe060cf9	-0.13090886
90	0xbe01ed66	-0.12688217
91	0xbe01a089	-0.12658896
92	0x3b34cd5c	0.0027588224
93	0xbf11394b	-0.5672805
94	0x3e85be67	0.26121828
95	0xbe9ab913	-0.30219325
96	0x3d59fab2	0.053217597
97	0x3ee67f77	0.45019123
98	0xbe8367dc	-0.25665176
99	0xbf32dc94	-0.69867826
100	0x3eca3067	0.39490053
101	0xbf02a666	-0.51035154
102	0xbec1efe4	-0.37878335
103	0x3eb3f2b1	0.35146096
104	0xbee74c6f	-0.45175502
105	0xbe1189b2	-0.14212683
106	0x3e9b8318	0.30373454
107	0xbd94f997	-0.07274168
108	0x3e6f0c1e	0.23344466
109	0x3f1aad29	0.6042047
110	0x3e80b91c	0.25141227
111	0x3f0a0c0e	0.53924644
112	0x3ec7c41a	0.390168
113	0xbf0c104f	-0.54712385
114	0x3cb628cf	0.022236256
115	0xbdbd5f1a	-0.09246655
116	0xbd2b95ec	-0.041891024
117	0x3ed0c7e8	0.40777516
118	0xbf1ccce8	-0.6125016
119	0x3e8ef860	0.2792387
120	0x3f160593	0.58602256
121	0xbe8ba7f0	-0.27276564
122	0xbda54e8d	-0.08071623
123	0xbe715e2d	-0.23571081
124	0x3f9a3b66	1.2049377
125	0xbe04baa7	-0.12961827
126	0xbe6a7079	-0.22894467
127	0xbe1dde9a	-0.15416947
128	0x3f053381	0.52031714
129	0x3e8654b5	0.262365
130	0xbece81bb	-0.40333351
131	0xbd9f3dd8	-0.07775468
132	0xbe1c65dd	-0.15273233
133	0xbe282daa	-0.1642367
134	0xbd4992b8	-0.049212188
135	0xbe261019	-0.16217078
136	0xbeedcc3a	-0.46444875
137	0x3f6a0d50	0.91426563
138	0xbdee07a1	-0.11622549
139	0xbd3a47d4	-0.045478657
140	0x3ea519f1	0.32246354
141	0x3f1a44cd	0.6026123
142	0x3f11319d	0.5671633
143	0x3eefca83	0.46834192
144	0xbe2506f6	-0.16115937
145	0xbe5f4735	-0.21804507
146	0xbee82535	-0.45340887
147	0x3ebf8e40	0.37413216
148	0x3e6a61bd	0.22888847
149	0xbf345b70	-0.7045202
150	0xbc9669f0	-0.018361062
151	0x3db980c5	0.09057764
152	0xbee96cb4	-0.45590746
153	0xbe3e1016	-0.18560824
154	0xbf065a4c	-0.5248153
155	0xbd5cff4b	-0.053954404
156	0x3d94b3c6	0.072608516
157	0xbe697f5d	-0.22802491
158	0xbe7f1618	-0.24910772
159	0xbeff518e	-0.4986691
160	0x3e057451	0.13032652
161	0x3f0c205a	0.54736865
162	0xbe45765b	-0.1928343
163	0x3e72f7a3	0.23727278
164	0x3cd4e68d	0.025988841
165	0x3ec424c6	0.38309306
166	0xbe53f5f5	-0.20699294
167	0x3b4d62a2	0.0031339307
168	0x3de62451	0.112373956
169	0xbd8f1152	-0.069857255
170	0xbe211cd0	-0.15733647
171	0x3e871538	0.26383376
172	0xbf1657a2	-0.5872747
173	0x3e331006	0.17486581
174	0xbee0c1c6	-0.43897837
175	0xbeef45fe	-0.46733087
176	0x3e681464	0.22664028
177	0x3dcd2f9a	0.10018845
178	0x3c2d7bf4	0.010588635
179	0xbf211b57	-0.6293234
180	0x3e154c7f	0.14579962
181	0xbcb578c0	-0.022152305
182	0x3ec3b389	0.38222912
183	0x3f118ce8	0.5685563
184	0x3eca0ec7	0.394644
185	0x3eb554f1	0.35416368
186	0x3e02f90d	0.12790318
187	0x3edf907b	0.43664917
188	0x3ec62d79	0.38706568
189	0xb8b82037	-8.779804e-05
190	0xbe37ae33	-0.17937545
191	0xbeb4e2e7	-0.35329363
192	0x3ea82183	0.32838067
193	0xbe633209	-0.22187056
194	0x3da647f1	0.081191905
195	0x3e634756	0.22195181
196	0xbec2dd6b	-0.38059554
197	0xbf187577	-0.5955424
198	0x3e43b20e	0.19110891
199	0xbcf0d27b	-0.02939724
200	0x3e96e121	0.29468635
201	0x3f57dc2d	0.84320337
202	0xbf8346e8	-1.0256014
203	0xbe6fd295	-0.23420174
204	0x3e85e84d	0.26153794
205	0xbea3ae1b	-0.3196877
206	0xbe128ea7	-0.1431223
207	0xbe808ec5	-0.25108925
208	0xbe66e2f9	-0.2254752
209	0xbe13ce06	-0.1443406
210	0x3ddecdec	0.1087912
211	0xbe25cc28	-0.1619116
212	0x3dbc53d7	0.09195679
213	0x3ed07edf	0.40721795
214	0xbea7f10a	-0.32801086
215	0x3e14e8b6	0.14541897
216	0x3de22104	0.110414535
217	0x3e9771a2	0.29578882
218	0xbe041c0c	-0.12901324
219	0x3f1365e8	0.5757737
220	0xbf05ab89	-0.52214867
221	0xbececd83	-0.40391168
222	0x3b9f4375	0.0048603364
223	0xbdfe7c55	-0.12426058
224	0xbedc18ca	-0.42987663
225	0x3e58f9a9	0.21188988
226	0xbeee20b3	-0.46509323
227	0xbd5dfbfb	-0.054195385
228	0x3b853a7f	0.004065811
229	0xbe89cfd5	-0.26916376
230	0x3eeba93f	0.46027562
231	0x3f350e03	0.70724505
232	0xbdf1f320	-0.118139505
233	0xbf15185e	-0.58240306
234	0x3f213c7b	0.6298291
235	0xbefc9f4e	-0.4934029
236	0x3e05e2c0	0.1307478
237	0xbd70014e	-0.058594994
238	0x3e63dd34	0.22252351
239	0x3e9fe5d1	0.31230024
240	0x3f721e43	0.94577426
241	0x3dead587	0.11466508
242	0xbe8bddb6	-0.2731759
243	0xbcbf8d0b	-0.023382684
244	0xbe2bf0f6	-0.16791138
245	0x3ea88103	0.32910928
246	0x3ea050cf	0.31311652
247	0xbef29612	-0.4738012
248	0x3de38aa3	0.11110427
249	0xbe44f43f	-0.19233797
250	0xbbc688df	-0.006058797
251	0x3e8584e9	0.26077965
252	0xbee0bc7b	-0.438938
253	0xbefaa869	-0.48956612
254	0xbe6d143c	-0.2315225
255	0x3e9e90cc	0.30969846

model_state f4 [100]
0	0xbd1a2f91	-0.03764302
1	0x3db7942d	0.08963809
2	0xbda36627	-0.079784684
3	0x3d8f382b	0.06993135
4	0x3abd568d	0.001444535
5	0x3d282d31	0.041058723
6	0xbcebe036	-0.028793436
7	0xbcff5280	-0.031167269
8	0xbdcb7942	-0.099352375
9	0xbdced3fb	-0.10099026
10	0x3da875ca	0.082255915
11	0x3bca4492	0.006172725
12	0xbc806ebc	-0.015677802
13	0xbc6cbf00	-0.014449835
14	0xbcddc457	-0.027071161
15	0xbcbc38b4	-0.022976257
16	0x3d377461	0.044788722
17	0xbd82c907	-0.06385999
18	0x3c1da7fc	0.00962257
19	0xbc6b13ec	-0.014348011
20	0xbc29799f	-0.010343938
21	0x3c6f6284	0.01461089
22	0x3d82f0fd	0.06393621
23	0xbd0559ac	-0.03255622
24	0xbc67e342	-0.014153304
25	0xbcfeab11	-0.03108743
26	0x3c87ea85	0.01659132
27	0x3cd45140	0.02591765
28	0xbc990ed8	-0.018683836
29	0xbbc4c233	-0.0060045957
30	0x3d0e326a	0.034716047
31	0x3cea6430	0.028612226
32	0xbd24eecf	-0.040266808
33	0x3d421d5a	0.047391273
34	0x3d8be714	0.06831184
35	0x3d88cf3b	0.06680151
36	0x3d70ab4b	0.058757108
37	0xbdfc262a	-0.12311967
38	0xbdb13b8a	-0.08653934
39	0xbcb48491	-0.022035869
40	0xbb9907ac	-0.004670104
41	0xbcd87b4b	-0.026425978
42	0xbd028ea4	-0.031874314
43	0xbd9322e6	-0.07184391
44	0xbd625499	-0.05525646
45	0x3d6cc255	0.057802517
46	0x3d35949c	0.044331178
47	0x3b13b5ca	0.0022538775
48	0x3e17d50d	0.14827366
49	0x3dc16387	0.094428115
50	0x3da07634	0.078350455
51	0x3c2cbd96	0.010543248
52	0xbe1905ff	-0.14943694
53	0xbb5912f0	-0.003312286
54	0x3de58ea2	0.11208846
55	0xbdba2935	-0.09089891
56	0x3d2a73be	0.041614287
57	0x3d5add38	0.053433627
58	0xbbb1c858	-0.005425494
59	0xbc2dfba8	-0.010619082
60	0xbcba9854	-0.022777714
61	0xbc831beb	-0.016004523
62	0x3d4eefc1	0.050521616
63	0xbc5e4589	-0.013566383
64	0x3dc78c4f	0.097435586
65	0xbc7da885	-0.015482073
66	0x3b0c31f5	0.0021392081
67	0xba267bb4	-0.00063508307
68	0x3c05737d	0.00814521
69	0xbbd0a90b	-0.0063678077
70	0x3c1a1631	0.009404705
71	0x3c4e62d6	0.0125968065
72	0xbd88e369	-0.06684
73	0xbccbcab3	-0.024876928
74	0xbd50bd29	-0.050961647
75	0xbd6ea52b	-0.058262985
76	0x3d87dbd0	0.06633723
77	0xbc9741ae	-0.018463936
78	0xbcaeaa4c	-0.021321438
79	0x3cee374f	0.029079108
80	0x3beea821	0.007283226
81	0x3da5cc5b	0.08095618
82	0x3d8ac5ec	0.06776032
83	0x3d4e9d5c	0.05044304
84	0x3d86ea86	0.065877005
85	0xbbe1c078	-0.006889399
86	0x3e1b3894	0.15158302
87	0xbdd39043	-0.1033025
88	0x3d0c82f3	0.03430457
89	0x3d035ddc	0.032071933
90	0x3dd42432	0.10358466
91	0x3d929d5b	0.071589194
92	0xbc3b13a4	-0.011418257
93	0xbdd742ce	-0.10510789
94	0xbe08f129	-0.13373245
95	0xbdb035f0	-0.08604038
96	0x3d07b653	0.033132862
97	0xbc0c486a	-0.008562187
98	0xbd26cf26	-0.040724896
99	0x3ca8e0f3	0.020615077
