hw3/checkpoints/rnn.pt (torch, 460201 bytes, 20 tensors)

model_state f4 [96, 78]
000000 dd 7a ad be 79 f0 d3 be 51 25 b4 3d 26 a0 f6 3e
       -0.338828 -0.41394404 0.0879618 0.4816906
000010 9b 15 4f be a1 d3 ba 3f cb e3 00 3e fb bf 23 3e
       -0.20223086 1.4595834 0.12586896 0.15991203
000020 59 58 ef bd 19 5a 8e be 6b f5 63 3e 69 34 7e be
       -0.11686773 -0.27803114 0.22261588 -0.2482468
000030 50 d7 04 3d fe 71 bd 3c 09 b7 6d 3b df b2 31 bd
       0.0324319 0.023125645 0.0036272428 -0.043383475
000040 07 09 9c 3e cb 47 44 3e 5c b5 e2 3d 45 34 4a 3e
       0.30475637 0.19168012 0.11069748 0.19746502
000050 df f0 18 be 13 dd a1 bd 8e d0 5a be a3 ea 51 be
       -0.14935635 -0.07903495 -0.2136862 -0.20499663
000060 7e 02 c8 be 84 95 e7 3e 39 f0 a5 be 81 25 62 be
       -0.390644 0.4523126 -0.32409838 -0.22084619
000070 ce f0 37 bf de c9 cf be 5c 9b 4a bd 14 b7 f6 3e
       -0.71851814 -0.405837 -0.04946457 0.48186553
000080 02 9f 3b 3e 6f 98 1e bf 71 e5 94 be 16 31 22 bf
       0.18322375 -0.61951345 -0.290813 -0.6335615
000090 09 25 fc be 3b cf 1d bf f8 3e df be 1a f6 25 be
       -0.49247006 -0.61644334 -0.4360273 -0.16207162
0000a0 9e aa 47 bf 44 dd 01 3c f9 5b 15 3e 6d f6 2b be
       -0.77994716 0.007926289 0.14585866 -0.16793223
0000b0 ef a7 92 be d6 d5 08 bf 1b 28 31 3f cc 2d 5f 3d
       -0.28643748 -0.5345129 0.6920182 0.054487035
0000c0 1b 67 13 bf 22 5b fc be 58 2b 16 3f 15 f9 fc be
       -0.575792 -0.4928828 0.5865989 -0.49408785
0000d0 d4 57 c5 3d d1 1f 31 bf f4 16 21 3f d2 7f 8c be
       0.096358925 -0.69189173 0.6292565 -0.2744127
0000e0 46 36 5f bd 31 89 16 3f fe cd 09 bf 15 be 85 3e
       -0.05449512 0.5880309 -0.53829944 0.26121584
0000f0 56 a9 f2 bd e1 5b d8 bd 00 7a c9 be 56 e9 ae 3d
       -0.118487045 -0.105643995 -0.3935089 0.08540599
000100 ba 2c 51 bf b0 25 2f 3f 2f 01 4e be db b4 42 3d
       -0.8170887 0.6841688 -0.20117639 0.04753576
000110 76 7e 8e 3c 3f 63 02 bf 42 77 c4 3e db 44 0b be
       0.017394286 -0.5093269 0.38372236 -0.13600485
000120 ed 25 e3 be 3e 93 9f bd 88 11 95 be 60 d5 0a bf
       -0.44364873 -0.07791756 -0.29114938 -0.54231834
000130 4f 50 78 be f5 f5 7b 3e be 2e e7 3d 6a 93 7b be
       -0.24249385 0.24605544 0.11288212 -0.24567953
000140 66 81 1b 3e a3 cf 01 3f 68 c5 0b 3e 45 87 32 bf
       0.1518608 0.50707453 0.13649523 -0.69737655
000150 b9 e5 89 3e 9b 40 05 3d e8 ea 11 bf 22 3c 61 3e
       0.26933077 0.032532316 -0.56999063 0.21995595
000160 0b 4e a8 be 25 a3 92 3c c6 1d e0 bd c4 87 36 3d
       -0.32872042 0.017900059 -0.10943179 0.04456307
000170 68 ab 96 3d 63 fc 55 3c 63 d4 9e 3e fb 00 47 3e
       0.07356912 0.013060662 0.31021413 0.19433968
000180 b4 a2 cf bc 37 c0 a1 3d ed 9e 81 be c8 05 3a be
       -0.025346138 0.0789799 -0.25316563 -0.18166268
000190 a5 44 27 be 3e 9a 3c 3b 30 cd 7e bf 49 3d b9 3e
       -0.1633478 0.002877846 -0.9953184 0.3617957
0001a0 bf 65 be be 19 f0 ea bd ba b5 2a be 21 d8 1f bf
       -0.37187 -0.11471576 -0.16670886 -0.6243916
0001b0 f3 07 ad be 35 3c ea be cc db 07 bb 23 56 8b be
       -0.33795127 -0.4574906 -0.0020730374 -0.27214155
0001c0 a4 ac 81 bd a3 d3 5e be 45 e3 3a bf 3f ee c5 be
       -0.06331757 -0.2176042 -0.73003036 -0.3865833
0001d0 80 44 7b be 00 e3 17 3e a1 d8 70 bf b4 17 90 bf
       -0.2453785 0.14832687 -0.9408055 -1.1257234
0001e0 6e 21 e6 be 5e e0 af bd 1a a1 4f 3e d3 d7 5a bd
       -0.4494738 -0.085877165 0.20276299 -0.053428482
0001f0 fa 2d be 3e 32 35 bb be 9c a9 32 3f 94 a4 93 be
       0.37144452 -0.36564022 0.69790053 -0.288365
000200 25 83 b0 3e bc 8c df be 05 ce 64 3d dd f0 e0 be
       0.34475055 -0.4366206 0.055860538 -0.43933764
000210 88 7d a3 bf a8 0a 70 bf 74 fb a6 be 05 4e c4 be
       -1.2772684 -0.9376626 -0.32613719 -0.38340774
000220 a7 9c 6f bf e0 57 15 bf 52 79 d5 be d3 3c 20 3f
       -0.9359841 -0.5833721 -0.41694123 0.6259281
000230 96 a2 c4 3c 72 f6 09 3d ea e9 1d bf b0 94 b9 3e
       0.024003308 0.033682294 -0.6168505 0.36246252
000240 eb 02 78 be 0f f9 51 bf 42 77 98 bf a3 ed c1 3e
       -0.24219863 -0.8202066 -1.1911395 0.37876615
000250 9a be 8d 3f 92 2f 5c 3e 06 02 17 3d 48 fb 7c 3e
       1.1073792 0.21502522 0.036867164 0.24705231
000260 10 70 8f be bd aa 21 3f 3f 2f 52 3f 24 96 7d be
       -0.28015184 0.6315115 0.8210334 -0.24764305
000270 4e f5 2f bf e3 14 83 3e 96 d7 dd 3d 37 b0 c9 3e
       -0.6873368 0.25601873 0.108321354 0.39392254
000280 85 7e 76 bd 3b 5e 18 3f be a5 0b 3d cd ab 47 3e
       -0.060179252 0.59518784 0.03409361 0.1949913
000290 7a e6 29 be b4 d3 7b bd dd d7 19 bf 8d 42 15 3c
       -0.16591826 -0.061481193 -0.60095006 0.009110105
0002a0 3e ec 10 bd 15 95 6a be ad 02 34 be 8d 55 ce bd
       -0.035381548 -0.22908433 -0.17579146 -0.10074911
0002b0 15 4e 12 be aa 2d e9 bd 43 97 00 3e 89 e8 45 bc
       -0.14287598 -0.11385663 0.12557702 -0.0120793665
0002c0 40 cc 86 bd c9 99 29 be 06 15 ab be 6e 48 1d 3e
       -0.06581926 -0.1656257 -0.33414477 0.15359661
0002d0 ac cf 73 3f c6 a3 e8 3e 50 89 9a 3e 43 c3 fa 3e
       0.9523876 0.4543745 0.30182886 0.48977098
0002e0 36 22 ab 3e 4a 7b 82 bf 7c 79 f1 bb 1c bd 9f 3e
       0.33424538 -1.0193875 -0.0073692184 0.31198967
0002f0 a0 5f 78 3d 05 40 cd be 51 b9 2c 3f a0 c5 75 bd
       0.06063807 -0.40087906 0.6747027 -0.060002923
000300 a7 6f 7b 3e 10 91 13 bf 73 e8 f2 be 6b d8 a9 be
       0.2455431 -0.5764322 -0.4744297 -0.33172926
000310 95 1c 23 be 5d e7 14 be 7b f9 f8 be 4c 71 de 3e
       -0.15928872 -0.14541383 -0.48627838 0.43445814
000320 78 c5 16 bf b0 9e 10 3f 8c e9 1b 3f aa 58 96 be
       -0.58895063 0.5649214 0.6090324 -0.2936452
000330 8b ae 06 be 58 00 82 bf 1f 86 71 be 8e e4 bf be
       -0.1315252 -1.0156355 -0.2358632 -0.3747906
000340 57 d9 8d be e0 cf 0f bf 3f f0 04 bf 72 97 3a bf
       -0.2770488 -0.5617657 -0.51929086 -0.7288734
000350 c3 57 a7 3e af 96 ed bd 44 6a 13 bc 21 41 2e 3d
       0.32684144 -0.11601006 -0.008997504 0.04254258
000360 16 49 75 bf d1 fb 07 3d 9e 38 1d bf 4b 34 d6 3e
       -0.95814645 0.033199135 -0.61414516 0.4183677
000370 5a 78 fb be 7e 69 96 3e 7d b3 97 be 27 f9 36 bf
       -0.49115258 0.2937736 -0.29629126 -0.71473926
000380 9f 01 0b 3e 81 d3 4b 3d b3 0a 7c be a5 d9 04 3f
       0.13574837 0.049762253 -0.24613456 0.518946
000390 41 36 d2 bb 7a 23 04 bf 1b 4d 61 be c1 8c b2 3e
       -0.006415159 -0.5161663 -0.2200207 0.34873012
0003a0 09 03 98 3e 70 a0 05 3f f3 19 b0 3f bb 43 ec 3d
       0.29689816 0.52197933 1.3757919 0.11536356
0003b0 cd 46 be be e9 3e e5 3c fb 15 29 be bd 03 25 3f
       -0.37163392 0.0279841 -0.16512291 0.6445883
0003c0 42 df 75 3e 0d 0c 1a 3e 1b 3a 4e be d7 5a 84 be
       0.24010947 0.1504366 -0.20139353 -0.25850555
0003d0 c6 59 2c bf a5 6e 65 be 58 4f c4 3c 57 5f 3d 3e
       -0.67324483 -0.22405489 0.023963615 0.184934
0003e0 58 ba 87 3d 45 6c d2 3d a0 2a c6 3d b2 85 0a 3e
       0.06627339 0.10274557 0.09676099 0.13527563
0003f0 c8 65 0a be 4e f1 83 bd 72 c4 a5 bc fa 6b 5f bd
       -0.13515389 -0.064425096 -0.020235274 -0.054546334

model_state f4 [96, 78]
000000 1e d5 4a 3f 61 8a 49 bf 64 9c 1b be 7e fd b8 be
       0.7923144 -0.78726774 -0.15196377 -0.361309
000010 b9 c9 05 be e2 3f 8b bf f4 79 51 be 3b 94 1a be
       -0.13065232 -1.087887 -0.20456678 -0.15095608
000020 5b 9d 3d be 00 d4 5b be d4 f6 33 3e 1f 89 3e 3d
       -0.18517058 -0.2146759 0.17574626 0.046517488
000030 3a 3d b2 bd 18 67 a2 3d 36 8b 7e 3d 7b 00 dd 3d
       -0.08703084 0.0792982 0.06214448 0.10791107
000040 f0 e5 ca 3d 50 8a ca 3d c2 5d 81 3e 74 28 44 3d
       0.09907138 0.09889662 0.25266844 0.04789014
000050 6a 26 11 3e cf f8 0d 3e e4 45 58 be 40 65 a3 bc
       0.1417481 0.13864444 -0.21120411 -0.01994574
000060 a2 87 7d 3e ed b6 e0 3e 79 91 61 3e 04 57 ec bb
       0.24758771 0.4388956 0.2202815 -0.0072125215
000070 ae c6 91 3f 4a 73 d8 3e a7 06 54 3d cb 33 db bc
       1.1388757 0.4227546 0.051764157 -0.026758095
000080 b4 9d 83 be 46 d3 1e 3c 60 b7 84 3c bc e1 2b 3f
       -0.25706255 0.009693926 0.016200721 0.6714132
000090 4e 33 1a 3f b8 ce 91 3e 19 63 8c bd cf ed 2a 3f
       0.60234535 0.28478026 -0.06854839 0.6676912
0000a0 40 52 68 3e 7d 6a 68 3f 42 09 5c 3d 0a 5c 78 be
       0.22687626 0.9078749 0.053719766 -0.2425386
0000b0 12 2a 4e 3f 74 4e 04 3f 4a a3 8f bd 36 44 26 3e
       0.80532944 0.5168221 -0.07013567 0.16236958
0000c0 dc 38 13 be 8d 09 83 3e 68 c7 56 3c b1 fb 59 be
       -0.14377159 0.25593224 0.013109066 -0.21287419
0000d0 03 ff 0a be 21 13 2a 3f 32 87 27 3f 53 8b 17 3e
       -0.13573842 0.6643544 0.65440667 0.14799242
0000e0 a0 91 89 3f 79 8e 72 3f ff 04 57 3f 6f a6 17 3c
       1.0747566 0.94748646 0.83992 0.009255989
0000f0 78 cc 8c bf 76 02 10 bf 6d be ba be 54 4e 10 3f
       -1.0999899 -0.56253755 -0.36473408 0.5636952
000100 da 09 63 3f a4 cb a5 3d 05 ce d3 be 7f ff 97 3f
       0.8868691 0.08095482 -0.41368118 1.1874846
000110 d2 1b 3b 3f ce 2a 37 3e d1 e1 24 3d 7a fb 71 bf
       0.73089325 0.17887422 0.040254418 -0.9452435
000120 6f e0 5e 3e 93 3f 41 3e 9f d0 65 be fd 24 4e be
       0.21765302 0.18871908 -0.22442864 -0.20131297
000130 66 29 00 3e 2d 1a 1b be e4 f0 e8 3d 18 33 30 3d
       0.12515792 -0.15146704 0.11374071 0.043017477
000140 77 29 ad be c4 bd 08 3c a0 f9 7c 3e 44 09 27 3f
       -0.33820698 0.008346025 0.247046 0.65248513
000150 b3 17 48 bc 4a 59 0d be ad fc af be 0b 28 12 bf
       -0.012212682 -0.13803592 -0.34372464 -0.5709235
000160 08 93 03 bf d2 3d ea 3d 72 b2 c8 3e 3d 99 b6 3d
       -0.51396227 0.114375725 0.39198643 0.08915947
000170 5b da 68 3e 64 39 31 3e 27 23 c6 3e b4 a1 c6 3e
       0.22739546 0.17307049 0.38698694 0.38795245
000180 fd 8d ae 3c e0 20 4b bc 38 f5 15 3e a6 33 15 bf
       0.02130794 -0.012397975 0.14644325 -0.58281934
000190 72 5d ed be 6b bc ab be f5 56 1c bf 13 9d 27 3e
       -0.46360356 -0.3354219 -0.61070186 0.16368513
0001a0 7e ab 2d bf 86 30 bb 3a 63 8f f8 be d9 23 e5 3e
       -0.678398 0.0014281429 -0.48546895 0.44753912
0001b0 6a 7a 2a bf 59 2f f3 3d 8b 80 cb 3e c4 81 d4 be
       -0.6659304 0.11874265 0.39746508 -0.41505253
0001c0 f7 e6 48 3f b2 32 d3 be 3b 24 96 3d 63 bc fd 3d
       0.78477424 -0.41249615 0.07331129 0.123894475
0001d0 bd 3e 06 3f 84 ea 23 3e b9 72 64 3f 79 85 e9 be
       0.5243948 0.1600743 0.8923755 -0.45609644
0001e0 b5 ba fc bd 9b 3e 48 be 88 a4 1b bf 7b dc 9b be
       -0.12340299 -0.19555132 -0.6079793 -0.3044165
0001f0 43 c8 32 bf 2e 50 c7 be 4a e5 ba be 73 49 c9 3e
       -0.69836825 -0.3892836 -0.3650306 0.3931385
000200 5e 8c cf be f1 e9 04 be 16 a4 57 3f 6b c7 22 3e
       -0.4053678 -0.12979867 0.8423475 0.15896384
000210 bc 5d 91 be 5f 04 a1 be d1 be ba 3c 55 a1 8e bf
       -0.28391826 -0.31448647 0.022796066 -1.1142985
000220 61 a1 9f 3f ec 6c c5 3e e0 61 ff be ca 1d 69 3f
       1.2471124 0.38559663 -0.4987936 0.9106108
000230 a3 78 26 3f 3e 27 a3 bf da df 8b 3e 46 47 7b be
       0.6502783 -1.2746351 0.27319223 -0.24538907
000240 9d 5d 45 3f 3c 34 87 3e b3 cd 22 3f 2c fe 9f be
       0.7709597 0.2640704 0.6359512 -0.31248605
000250 bf 4f 31 3f 16 a8 d3 be 87 ff 63 be 60 8d 4d 3f
       0.6926231 -0.41339177 -0.22265445 0.80293846
000260 9a 45 79 bf 10 72 8a 3e 4f 16 69 be fb 09 9a bd
       -0.9737183 0.27040148 -0.22762416 -0.07521435
000270 c6 0a f6 bd e5 03 a6 be 2b d3 43 be 2f 91 33 be
       -0.120137736 -0.32424846 -0.19123523 -0.17535852
000280 79 5d 7b be 1a 93 ea be 4b c6 78 be e9 06 96 3d
       -0.24547376 -0.45815355 -0.24294393 0.07325537
000290 71 1a 23 3e fd 1b 3b be 5f d5 01 bd de 44 7c bd
       0.15928055 -0.18272395 -0.031697627 -0.061589114
0002a0 6f ef ac be e9 74 36 be 98 fd a0 3d ec 77 6d 3e
       -0.33776423 -0.17818035 0.07860869 0.23190278
0002b0 27 a1 61 be 3a 16 05 be 1b 7e e0 3d 07 ca 18 3e
       -0.22034131 -0.1299676 0.10961553 0.14920817
0002c0 2b 02 53 be a8 d7 e4 be 3a ae 02 be 8d 3c 4b be
       -0.20606296 -0.44695783 -0.12761775 -0.19847317
0002d0 62 80 6f 38 0b f5 3d bf a5 f1 f9 bd e5 aa 85 be
       5.7101606e-05 -0.7420203 -0.12204293 -0.26106945
0002e0 45 78 f1 3d 80 c9 a0 3e 28 3e ea 3e 3c 21 35 3e
       0.11790518 0.31403732 0.45750546 0.17688459
0002f0 dd 63 5b bf a0 bb f5 be 2a ac a6 be 46 85 b2 3d
       -0.85699254 -0.4799471 -0.32553226 0.08716826
000300 8d 82 ac be 4e f0 7e 3e 07 f9 ab be 66 d8 c3 be
       -0.33693352 0.24896356 -0.3358843 -0.38251036
000310 60 22 e8 be 11 1c cf be fa 91 dc be 3b 0b 98 3e
       -0.45338726 -0.404511 -0.4308012 0.29696068
000320 b4 e3 54 bf 64 79 00 3d 36 c6 8d be 83 ec 0c bd
       -0.8315995 0.031365767 -0.27690285 -0.034405243
000330 d3 80 fa bc b2 c4 d7 3d 59 d8 a8 be 01 30 02 bf
       -0.030579006 0.105355635 -0.3297756 -0.508545
000340 34 0a 28 3e 45 be 16 bf 1f 52 23 be 18 9b 32 be
       0.16410142 -0.5888408 -0.15949295 -0.17441976
000350 e1 16 f3 3e 49 7f 96 3f da f4 3c 3f f9 83 78 3e
       0.47478393 1.1757594 0.73811114 0.24269094
000360 21 a9 2b bf a1 32 35 bf ae 68 fb 3d aa ef a4 3e
       -0.67054945 -0.7078038 0.122758254 0.322141
000370 1c b1 8b 3f 15 0c 8e bd 7d 4d 6b be b7 a4 85 bd
       1.0913424 -0.06935898 -0.22978778 -0.065255575
000380 ef 1a 19 bf e0 2e 1a 3e c2 92 a2 be 69 be 90 3e
       -0.5980672 0.15056944 -0.31752592 0.2827027
000390 85 b9 5d 3e bf a0 a8 3e c4 32 88 be 7b 59 c6 3d
       0.21652801 0.3293514 -0.2660123 0.09685036
0003a0 57 36 2c 3e f4 17 13 bf 5b ed 97 3e 43 35 b9 be
       0.16817604 -0.57458425 0.29673275 -0.36173448
0003b0 56 32 c7 be 6e fb aa 3e a0 49 08 3e 5d 9e 6e bf
       -0.3890559 0.3339495 0.13309336 -0.93210393
0003c0 66 6a a5 3d 2e 6b 4d be 4d 5f 2f be 2c c7 5a bd
       0.080769345 -0.20060417 -0.17126198 -0.0534126
0003d0 24 e6 02 bf a4 ce 89 3d b4 2b f4 3e 95 2c b5 3e
       -0.51132417 0.06728867 0.47689593 0.35385576
0003e0 ca a9 e2 3e 3c 00 a6 3e e8 5a a5 3e bf 9a 8e 3e
       0.44270164 0.32422054 0.32295918 0.27852437
0003f0 8d 18 46 3e d5 6a d2 3d 22 28 e3 3c 56 89 8c 3d
       0.19345303 0.10274283 0.027729098 0.06862132

model_state f4 [96, 78]
000000 ad 32 3a 3f a5 a1 cf 3e 13 b6 86 be ec 69 d1 3b
       0.72733575 0.40553012 -0.26310787 0.0063908007
000010 fb 2e 5b be 26 9a b1 3e d0 f7 09 3e 58 6b e5 bd
       -0.2140464 0.34687918 0.13473439 -0.11202115
000020 f5 7c 84 3e be 1a 63 bd 86 7e 06 bf 5b 67 8d be
       0.25876585 -0.055445425 -0.5253681 -0.27617916
000030 e0 80 ae be 4c 11 2b be 86 82 9f bd d7 32 6d bd
       -0.340827 -0.16705817 -0.07788567 -0.057909813
000040 86 79 0c be 2a d2 25 be e0 c2 d7 bd 1c 6d 8b 3d
       -0.13718233 -0.16193452 -0.10535216 0.0680792
000050 cd c1 73 be 86 3f 14 be d9 25 83 3e 72 2d 00 bf
       -0.23804398 -0.14477357 0.25614813 -0.50069344
000060 31 4f 11 bf 8f 0e 76 be 82 f1 c4 3e c6 0d 2e be
       -0.5676146 -0.24028991 0.38465506 -0.16997442
000070 c6 3c 32 be 42 75 cc 3e da dd f6 3c 70 a6 c6 3d
       -0.17405996 0.3993321 0.030135084 0.09699714
000080 59 a1 72 bd 00 8d 85 be d3 de 6c be 5d 37 00 bf
       -0.059235904 -0.26084137 -0.23131876 -0.5008448
000090 d8 c6 f8 3d b9 98 29 3e af bc 87 be 2e 7e a0 3d
       0.121473014 0.16562165 -0.26511142 0.07836567
0000a0 ec 3c f5 be 2a 3a 3f bb ea e8 41 3e aa 12 a7 3e
       -0.47898042 -0.0029178956 0.18936506 0.32631427
0000b0 bf f4 f3 3e d8 50 33 3e 3b 4e a0 3e 04 21 88 bd
       0.47647664 0.17511308 0.31309685 -0.06646922
0000c0 bc d6 cd be c5 e9 e0 3e fe df f2 3e 3a 72 fa be
       -0.40202892 0.43928352 0.47436517 -0.48915273
0000d0 c1 f1 20 be 26 a1 63 be 98 6d fb 3e 49 52 6e bd
       -0.15717222 -0.22229442 0.4910705 -0.058183942
0000e0 7a 60 51 be 02 79 75 3e bb 27 5f 3e e6 87 e0 3d
       -0.20446959 0.23971942 0.217925 0.109634206
0000f0 bd 26 d3 be 46 f6 41 3e 5d 61 36 bf d7 71 06 bf
       -0.41240492 0.18941602 -0.71242315 -0.52517456
000100 47 96 8e bd 23 40 dd bc 31 28 e2 bd 2f 08 36 3e
       -0.06962257 -0.027008122 -0.11042822 0.1777656
000110 ce 8b 1c 3f 7d 0f 30 be b3 38 15 3e 8a 84 4c 3e
       0.61150825 -0.17193408 0.1457241 0.19972435
000120 a1 dd 93 be bd b7 c6 be 63 cd bf 3d 88 ce 81 3e
       -0.28880027 -0.38812056 0.09365346 0.25352883
000130 c9 95 3b be d9 2b 93 be 19 4f fb 3c 12 1b b4 be
       -0.18318857 -0.2874439 0.030677365 -0.35176903
000140 06 de e6 3d 63 c9 47 be c4 15 53 be 78 65 1a bf
       0.11272816 -0.19510417 -0.20613772 -0.6031108
000150 46 1a 6f be 73 47 5a 3e 57 99 ad 3e ff fc c6 3c
       -0.23349866 0.21316318 0.33906052 0.02429056
000160 af 54 97 3e ce 67 30 3d c4 d9 8b 3e 73 8c 0f 3e
       0.29556796 0.043067746 0.2731458 0.14018421
000170 33 85 e7 3d 35 1a 8c 3d 82 14 33 3e 7d bf 19 3e
       0.113047026 0.06840936 0.17488292 0.15014453
000180 0b b1 18 3e 01 b4 43 3d d2 26 cf bc 29 17 19 3e
       0.14911287 0.047779087 -0.025287066 0.14950241
000190 3f 3b 0f 3f 68 bf b1 3d cf 76 aa be ca f8 ac 3e
       0.5594978 0.08679086 -0.3329377 0.3378356
0001a0 3a 27 bc be e9 90 67 3d 23 fe e2 bc 73 c4 aa 3e
       -0.36748677 0.05653468 -0.027709072 0.33353004
0001b0 4e 7b 4c be f7 67 05 3e 2e 1e 13 3e 23 87 6c 3e
       -0.19968912 0.1302794 0.14366981 0.23098426
0001c0 bc 82 31 3d 11 06 8c be 2a 62 a6 3e cf e8 9c be
       0.04333757 -0.27348378 0.32496768 -0.3064637
0001d0 db 6c 9e 3e 8d e4 a8 3d 1a 36 3b 3f 25 16 33 bf
       0.30942425 0.082467176 0.7312943 -0.69955665
0001e0 77 09 5f bd 10 6c f8 be dc 19 cf 3e 98 49 9d 3e
       -0.054452386 -0.48519945 0.40449417 0.3072021
0001f0 18 64 5a 3d f4 68 42 3e b9 56 84 be 1f bc 7d 3e
       0.053318113 0.18985349 -0.25847414 0.24778794
000200 43 4a 01 bf 18 4c 8e 3e 25 59 70 3d c2 74 b1 3e
       -0.5050394 0.2779243 0.058678765 0.34659392
000210 bd 23 20 bf 5e cd d8 3d 38 a8 76 3e ce a9 9e 3e
       -0.6255453 0.10586046 0.24087608 0.30988926
000220 6d f4 12 3d e2 cf 9c 3e 69 33 a1 be bf 74 13 3e
       0.035877634 0.30627352 -0.31484535 0.14400004
000230 7a ee d6 3e 96 29 b3 bd 54 98 15 3f b4 d2 c4 be
       0.41978818 -0.08748166 0.5843556 -0.38442004
000240 9f 3f 3c 3e 42 6b 48 3e bf 6d 8f 3f 07 e9 30 be
       0.18383645 0.19572166 1.1205367 -0.17276393
000250 4d 48 90 3d 4c 28 6a bd ea 0d fc 3e 3e ad fa 3e
       0.0704504 -0.057167336 0.49229366 0.48960298
000260 48 de 30 3f 93 58 0c 3f 12 d8 dc be bc c7 a9 3e
       0.69089174 0.54822654 -0.431336 0.33160198
000270 0d 79 09 3f 2a ca 70 bd 54 c3 24 bd 05 b4 4b 3e
       0.53700334 -0.05878655 -0.040225342 0.19892891
000280 94 1f f6 bd 58 f1 f5 3e 62 6d 5a 3e 89 26 b7 bd
       -0.12017742 0.48035693 0.21330789 -0.08942897
000290 b3 bc 10 3e f6 a7 1c bd 32 1f bc 3e 80 ca c8 3c
       0.14134483 -0.038246118 0.3674255 0.024510622
0002a0 71 cb 01 bf 55 33 0e bf 6a 41 05 bf 1b 38 ba be
       -0.5070105 -0.55547076 -0.5205294 -0.3637093
0002b0 cd a9 b7 be 57 df 3b be 4b dc 83 bd 16 18 c4 bd
       -0.35871735 -0.18346916 -0.06438502 -0.095749065
0002c0 1b fc a2 bd ce 20 ed 3d 01 17 78 3e c4 51 cb bc
       -0.079582416 0.115785226 0.24227525 -0.024819262
0002d0 5c 86 e2 be b3 4d 2b be ce 12 e8 3e 77 55 67 be
       -0.44243133 -0.16728859 0.45326847 -0.22591196
0002e0 c6 56 03 bf 14 2e 17 be a2 b1 38 bd 99 e6 a0 be
       -0.5130428 -0.14763671 -0.04509128 -0.31425932
0002f0 e7 0c c1 be dc a4 da be 18 c0 bb 3e 11 f0 1f be
       -0.37705156 -0.42703903 0.36669993 -0.15618922
000300 a9 10 af bd cb 3b 3a 3e 12 e9 b4 be 3e ec 81 3d
       -0.085480995 0.18186872 -0.3533407 0.06343888
000310 e2 cb 1d bf f1 6a bd 3e 09 1a a8 3e 24 33 15 bf
       -0.61639225 0.36995652 0.32832363 -0.5828116
000320 f2 f9 84 3e 73 34 81 bd 54 17 8b 3c 6b 1c 5a 3e
       0.25971943 -0.06308832 0.016978897 0.21299903
000330 a0 72 cd be bb 9d 7c be 19 c6 a4 3e c1 a9 16 bc
       -0.40126514 -0.24669544 0.32182387 -0.009195746
000340 c4 ab b6 3e ce ab 05 be 8e 4c c0 3e 30 6f a6 bd
       0.35677922 -0.1305382 0.37558407 -0.08126676
000350 01 9b 80 be d9 3f 5c bd b6 d3 cc 3d 6c 75 93 3c
       -0.2511826 -0.053771827 0.10001318 0.018000327
000360 67 17 a9 3d c9 68 04 bf ae 69 e7 3e 3e fa 3d 3e
       0.08256417 -0.5172239 0.45197815 0.18552491
000370 67 05 5c 3d 50 89 bd 3d c8 5b 83 be 53 0e 31 3e
       0.05371609 0.09254706 -0.2565596 0.1729062
000380 5c 08 04 bf 44 4c 69 bd 78 2d de 3e b8 44 83 be
       -0.51575255 -0.0569575 0.43394065 -0.25638366
000390 d7 7f d5 be 5a a6 9e 3e 59 32 b3 3e 48 cd 0d be
       -0.41699097 0.3098629 0.3499935 -0.1384784
0003a0 77 64 ec be e4 59 81 be 25 64 42 bd bd b1 c8 bd
       -0.461704 -0.25263894 -0.047458787 -0.09799526
0003b0 25 c3 c6 be aa 4d ef be 13 4a a5 be e2 cb 54 3e
       -0.38820758 -0.4673894 -0.32283077 0.207809
0003c0 ed 76 2b be 9d ba b7 bc 44 93 75 be 4d ee ce be
       -0.16744585 -0.022427851 -0.23981959 -0.40416184
0003d0 33 4e 26 bf a2 0c a2 be 4a 4a 3b be be 5c 47 be
       -0.6496307 -0.31650263 -0.18290058 -0.19468972
0003e0 89 e9 54 bd 3e 87 06 be a7 07 43 bc 5d 74 d5 bd
       -0.05198053 -0.13137528 -0.01190368 -0.10422585
0003f0 85 d6 06 be db 1e 07 be 36 0f d3 bd f2 c5 ff be
       -0.1316777 -0.13195364 -0.10305636 -0.49955708

model_state f4 [96, 96]
000000 c3 56 6b bd 7e 78 12 be 6d a2 f2 be b2 27 8b be
       -0.05745579 -0.14303777 -0.47389546 -0.27178723
000010 7a bb 8a 3e 6d d6 16 3f f2 69 86 be 05 67 b1 bd
       0.27096158 0.5892094 -0.26252705 -0.086622275
000020 b1 3a 0a bf 45 02 d6 be 2f a7 98 3e 43 4e 05 bf
       -0.53995806 -0.41798607 0.2981505 -0.5207254
000030 b3 0d ea bd 43 22 ad 3e ca 0d 7e 3f d4 5d 90 3c
       -0.11428394 0.33815202 0.9923979 0.017622866
000040 be 82 b5 3e a7 6a a3 be c9 a5 05 3f c2 a0 68 be
       0.3545131 -0.31917307 0.52206093 -0.22717574
000050 06 e2 39 3e 62 ed d4 be 2b 42 16 3f 99 57 df be
       0.18152627 -0.4158736 0.58694714 -0.4362152
000060 46 d2 d8 be ce 87 85 3e 5e 97 98 bd 28 60 38 3e
       -0.42347926 0.26080173 -0.07450746 0.1800543
000070 52 e9 5c 3d 3e c7 20 bd fc cd ce be 70 2a c6 3e
       0.05393345 -0.039252512 -0.4039153 0.38704252
000080 1c 94 a7 be f4 74 d7 bd a7 68 d6 3e a2 37 e1 3e
       -0.32730186 -0.10520354 0.41876718 0.43987757
000090 c0 dc 2f 3e 3a d7 0b bf 24 09 a2 be 43 34 8c be
       0.17174053 -0.54625285 -0.316476 -0.27383623
0000a0 48 fe 2b 3d b9 99 99 3e 60 fa 23 be 32 e6 93 be
       0.04199055 0.30000094 -0.16013479 -0.28886563
0000b0 50 ab df 3e 11 9a b6 bd 62 41 9d 3e 4a 1d 77 3e
       0.4368539 -0.089161046 0.30713946 0.24132267
0000c0 76 22 dc 3e 6f 7a ba 3e 36 02 77 3e 9f e4 cf 3d
       0.42995042 0.36421534 0.24121937 0.10151028
0000d0 03 a2 de be 24 37 dc 3e dd 82 f1 be 9c 1d bf bc
       -0.4348298 0.4301082 -0.47170153 -0.023329549
0000e0 73 50 36 3f 64 28 f0 3e a0 54 89 be b2 f3 4b be
       0.71216506 0.46905816 -0.26822376 -0.19917181
0000f0 2f 67 97 3c 0a 62 03 be 73 03 6a 3e 9d 64 95 3e
       0.018481819 -0.12830368 0.22852878 0.29178324
000100 c4 7c 75 3c 97 61 a4 3d df b9 ca bd 1c b3 9b be
       0.01498336 0.08026426 -0.09898733 -0.30410087
000110 8a e5 b7 be bc ca 3c bf 53 66 ee 3e 22 89 6e be
       -0.35917312 -0.7374685 0.46562442 -0.232945
000120 59 08 36 be 7e 24 9c bb eb 8b b7 be b7 36 c7 3e
       -0.17776622 -0.0047650924 -0.35848936 0.38908932
000130 48 a5 c0 be 18 5b be 3d 4c 21 a8 3d 0c b9 cd bd
       -0.376261 0.092947185 0.08209476 -0.100450605
000140 01 c1 8b be b7 77 e9 3e ab 31 80 be bc 05 95 bb
       -0.27295688 0.45599148 -0.25037894 -0.0045478027
000150 0f e2 f2 bc 70 ba e3 be 03 2b 29 bf c3 b2 d6 3d
       -0.029648809 -0.44478178 -0.66081256 0.10483315
000160 ad 33 89 be df 19 96 bd ae 7b f7 be d4 33 a4 be
       -0.26797238 -0.07329153 -0.48336548 -0.32070792
000170 70 b1 eb 3e 87 c9 08 3f ca f2 04 bf d7 5b 8c be
       0.46033812 0.53432506 -0.51932967 -0.27413818
000180 cf d9 0f bc 81 7a 8e 3d 7a 89 49 be c2 55 1a 3f
       -0.008779957 0.069569595 -0.1968135 0.60287106
000190 5d d2 99 3e a1 92 4d 3f 25 ce fc be e8 9a 5b bd
       0.30043307 0.8030186 -0.49376026 -0.053614527
0001a0 c6 9f a1 be ac 0c 25 3e d0 9c da bd 1b 0d 48 bf
       -0.3156721 0.16118115 -0.10674441 -0.78145
0001b0 56 6e 9d bc ad a4 1d 3e cb 66 3d 3d 5f 81 01 3f
       -0.019217651 0.1539485 0.04624061 0.5058803
0001c0 81 04 84 3e 19 6c a9 be 0d 46 27 3f 59 6c a0 bd
       0.25784686 -0.33090284 0.65341264 -0.07833166
0001d0 9e 6d 71 be 4c 8e 03 3e 3b 12 77 3e ea 13 fc be
       -0.23576972 0.1284725 0.24128048 -0.49233943
0001e0 a8 4b 19 bf 61 0b d0 3e 8b c4 c5 be 2e f2 25 3f
       -0.5988107 0.4063368 -0.38626513 0.6482266
0001f0 6e 40 56 3d c3 94 a1 3e 66 38 66 bf ab d1 0f 3f
       0.05230754 0.3155881 -0.8992981 0.561793
000200 6c 87 c5 be 41 e1 95 3d 50 18 b7 3e f4 5b d2 3d
       -0.3857988 0.073183544 0.35760736 0.10271445
000210 cc 54 23 3f 6b fb 7b be 8c 98 11 be 38 5c 76 be
       0.63801265 -0.24607627 -0.14218348 -0.24058616
000220 6d 3c 57 3e e5 da d2 3e a9 f8 50 be e6 4d 13 bf
       0.21019144 0.41182628 -0.20407356 -0.5754074
000230 2f 08 bd 3e ea 73 41 3e 02 24 bc 3e e4 02 ab 3e
       0.36920306 0.18891874 0.36746222 0.33400643
000240 01 2b 8d 3e e5 04 45 3f c5 1a 79 3e 1b fa 9d 3e
       0.27571872 0.76960593 0.24326618 0.30854878
000250 eb bf 1d 3f 80 fa 73 3e 24 d7 ec be 0a 8e f6 be
       0.6162097 0.23826027 -0.4625789 -0.48155242
000260 a1 e1 3e 3f a6 cf 1d 3f fe 4c d1 be 18 bf 56 be
       0.7456303 0.6164497 -0.40879053 -0.20971334
000270 45 9d 20 3c d7 93 df be c3 31 70 3c fd c3 a0 3e
       0.009803121 -0.4366748 0.014660302 0.31399527
000280 53 7c 6c 3e cd f0 c5 3d 1e 44 a1 3e 38 2f 2b 3d
       0.23094301 0.0966507 0.31497282 0.04179308
000290 66 86 d2 be 86 48 5b bf 01 d7 18 3f 64 76 36 be
       -0.41118163 -0.85657537 0.5970307 -0.178186
0002a0 39 ea de 3e 9b 28 03 3e ef 60 04 be c3 34 5a bd
       0.43538073 0.12808459 -0.12927602 -0.053272974
0002b0 eb 37 30 be 36 e6 c5 3e be 58 3b 3f 19 02 c3 3d
       -0.17208831 0.386522 0.73182285 0.095218845
0002c0 4c bc c7 be be 87 a4 3e 92 ab 82 3d 44 80 10 bf
       -0.39010847 0.32134813 0.06380381 -0.5644572
0002d0 db 39 5d bd c2 70 0f bf 36 ea 11 3f 4b 77 64 3e
       -0.054010253 -0.5603143 0.56998 0.22311132
0002e0 2f 53 30 bf ab f8 31 3d c8 70 9a bb d2 6e a9 be
       -0.6887693 0.04345004 -0.0047131516 -0.33092362
0002f0 d1 71 c9 3e 08 7f 98 3d 69 94 fd be 35 55 8d bf
       0.39344648 0.07446104 -0.4952729 -1.1041628
000300 21 36 42 bf 79 25 01 3e 4a 02 24 3e 47 21 b0 be
       -0.75863844 0.12611951 0.16016498 -0.3440039
000310 e0 b1 b2 3d 02 e1 81 be f6 64 85 bf 7b 4a 91 3e
       0.08725333 -0.2536698 -1.0421436 0.28377137
000320 ef 92 cd be bd 4f 89 bd ce 6f 0f be 68 50 6d 3e
       -0.40151164 -0.06704662 -0.14007494 0.23175204
000330 68 c8 bc be 4f 69 43 bd e9 5f 0d 3f 5e 43 f4 be
       -0.36871648 -0.047707852 0.5522447 -0.47707647
000340 cc 5f df 3e f6 b6 c8 be 0d 6f 0c 3e 08 c4 66 bd
       0.43627775 -0.39202088 0.13714238 -0.056339294
000350 2b 2f 9a be e7 98 11 bf a0 3d 63 bd 25 86 19 be
       -0.3011411 -0.56873935 -0.055478692 -0.14992578
000360 ed 75 02 bd 8a 00 a7 3d 21 03 87 3c 99 5f f2 3e
       -0.031850744 0.081544 0.016480984 0.4733856
000370 b9 b2 3a bb 8f 16 73 be f6 6d 07 bf f0 0e 0f 3e
       -0.0028487875 -0.23739074 -0.5290216 0.13970542
000380 10 7d 47 3e 1e d0 36 bd 73 9b 6b be 54 8b 88 bd
       0.19481301 -0.04463207 -0.23008518 -0.066672
000390 05 f1 05 3f ed 3d fa bd 87 88 b2 be 74 0a bc 3e
       0.5232089 -0.12218843 -0.34869787 0.36726725
0003a0 d2 4f 6a bd ee 0d 80 bd 80 d3 cd 3d 0c 3f 11 be
       -0.05720503 -0.06252657 0.10050106 -0.14184207
0003b0 a0 e1 ea 3e 86 a5 51 3e ec f8 f8 3d b8 ec 74 3f
       0.45875263 0.20473298 0.12156853 0.95673704
0003c0 40 2e 1d be 1e 47 26 bd 4a ac 98 3e c8 b3 4e 3e
       -0.15349674 -0.040595166 0.29818946 0.20185769
0003d0 46 87 cb 3e bf cb 43 be 91 41 19 bf 3d 31 c5 be
       0.39751643 -0.19120692 -0.5986567 -0.38514128
0003e0 a1 99 3c be 55 56 55 3f 8e d3 a1 3e bf 9f 8a bd
       -0.1841798 0.8333486 0.31606716 -0.067687504
0003f0 89 3b 51 3e 34 f8 31 3d 29 95 97 be 97 fb 30 bd
       0.20432867 0.043449596 -0.29605988 -0.043208685

model_state f4 [96]
000000 a2 00 00 bf d0 3f 2d bf d5 6e 25 be d8 10 da be
       -0.50000966 -0.67675495 -0.1615556 -0.42590976
000010 05 60 94 be 37 5c 90 be fe af 54 bf 3c 7c 2d bf
       -0.28979507 -0.28195354 -0.8308104 -0.6776769
000020 22 f1 d5 be 8e 70 3d bf 8d d4 fb be 09 40 1d bf
       -0.41785532 -0.7399987 -0.491856 -0.61425835
000030 da 81 10 bf fa 12 1c bf 2a 84 57 be 16 9e a3 be
       -0.5644814 -0.60966456 -0.2104651 -0.31956547
000040 c3 3d 0c bf 80 58 35 bf 62 21 4e be 72 4f d3 be
       -0.5478174 -0.70838165 -0.20129922 -0.4127155
000050 fc 6e dc be b3 18 ee be d2 7c c1 be a4 b9 1a bf
       -0.43053424 -0.4650322 -0.37790543 -0.60439515
000060 85 a9 08 bf 61 43 44 bf d6 ea 06 bf 04 16 65 bf
       -0.53383666 -0.7666531 -0.5270208 -0.8948672
000070 d2 b9 26 bf 30 7d 2a bf 0c 0f 5c bf 8b 92 f7 be
       -0.6512729 -0.6659727 -0.8596046 -0.4835399
000080 02 56 e9 be 21 fe 0c bf c4 c8 e9 be 1b 47 70 be
       -0.4557343 -0.5507527 -0.45660985 -0.23464625
000090 dd 66 29 bf ee ba 35 bf d2 8d cd be ee b1 0c bf
       -0.6617258 -0.7098836 -0.40147263 -0.54959
0000a0 36 c6 5a be ac c5 46 bf b4 49 2b bf 8a 69 4f bf
       -0.21364674 -0.77645373 -0.6690934 -0.81020415
0000b0 1f dd 64 be 15 8d 99 be 8c 20 0e bf aa be 41 bf
       -0.22349976 -0.2999045 -0.5551841 -0.75681555
0000c0 82 04 1f bf e2 17 5b bd e7 66 ce be 1c dc f7 be
       -0.62116253 -0.053489573 -0.40312883 -0.48410118
0000d0 14 30 6c be 7b 1f 3e bf a3 a3 59 bf c3 5d fd be
       -0.23065215 -0.74266785 -0.85015315 -0.49485597
0000e0 57 27 d7 be 01 6c 2e bf 42 5b 23 be 05 56 23 bf
       -0.420222 -0.6813355 -0.15952781 -0.6380313
0000f0 30 09 fe be f9 64 1b bf a9 50 35 bf 84 09 16 bf
       -0.49616385 -0.6070095 -0.708262 -0.5860827
000100 52 c9 7c be f9 72 10 bf 5a 15 04 bf d0 d8 4c be
       -0.24686173 -0.56425434 -0.5159508 -0.20004582
000110 9b 96 f9 be 2d 21 31 bf 85 a0 af be 08 84 cf be
       -0.48747715 -0.6919125 -0.34302154 -0.4053042
000120 e8 ac ce be d5 e1 0c bf eb c2 a5 be 47 70 c2 be
       -0.40366292 -0.5503209 -0.32375273 -0.37976286
000130 1c 1d f4 be c7 9e c0 be 65 b2 4e bf 2e d9 35 bf
       -0.4767846 -0.37621137 -0.8074096 -0.71034515
000140 fd cb 38 bf 19 14 13 bf 0b f6 b9 3d 74 f8 05 bf
       -0.7218626 -0.5745254 0.09080132 -0.52332234
000150 7a 09 f3 be 74 55 7e 3e 62 1c 21 bf 10 8e d7 be
       -0.47468168 0.24837285 -0.62933934 -0.42100573
000160 03 0a 9a be c6 31 21 bf 8e 64 15 bf c3 82 b3 be
       -0.30085763 -0.62966573 -0.5835656 -0.350607
000170 42 64 17 bf 84 15 29 bf f4 8c 24 bf cb 82 27 bf
       -0.59137356 -0.66048455 -0.6427758 -0.6543395

model_state f4 [96, 96]
000000 ff 00 33 be 19 65 21 3e 7b 14 f3 3b de f0 80 be
       -0.17480849 0.15761222 0.007418213 -0.25183767
000010 da 5e 05 3c 4b b7 0c be 6d 11 d9 bd 0d 69 91 3e
       0.00814029 -0.13741796 -0.10599027 0.2840046
000020 e6 79 83 3c 6c 3e 96 bd bf d1 ec bd 07 7c 36 be
       0.016049337 -0.07336125 -0.115634434 -0.1782075
000030 da 24 42 bc 78 c0 0b be 74 fa 78 3c 31 71 70 be
       -0.011849606 -0.1364764 0.015196431 -0.23480679
000040 cd 63 a8 3d 0a f7 8d 3d a3 a0 82 3c 13 87 14 be
       0.082221605 0.069318846 0.015945738 -0.14504652
000050 55 bd 43 bc 90 6d c5 3c 69 dc b7 3b 64 0f a0 3d
       -0.011946996 0.024100095 0.0056109917 0.078154355
000060 58 87 76 be ab 16 a4 3c 25 c8 a4 bc 8f 2f 21 3e
       -0.24075067 0.02003034 -0.020114968 0.15740798
000070 6d 92 b3 3d a0 fb 74 3d f4 e6 b6 bd 8d 87 61 3c
       0.08768163 0.05981028 -0.089307696 0.013765228
000080 19 05 6d bc 33 47 a0 bd db 5a 62 bd 5f dd bc 3a
       -0.014466547 -0.0782608 -0.055262428 0.0014409235
000090 22 c2 b3 3b 32 0d c1 bc 98 6f d7 bd 8c 17 11 3c
       0.005485789 -0.023565862 -0.10519332 0.008855712
0000a0 85 5a 44 bb 19 4f c9 bd 99 fa 20 3e 99 fe 8c bc
       -0.002996118 -0.0982954 0.15720595 -0.017211245
0000b0 0a 8a 41 3e 0c 65 de 3d 12 e0 73 3d a7 80 38 3d
       0.18900314 0.10859117 0.059539862 0.045044567
0000c0 5c b1 52 3e f5 81 14 3e 87 35 e7 3a 22 11 d5 3b
       0.2057547 0.145027 0.0017639854 0.0065022865
0000d0 fd 4f 33 3e b5 df e5 bc 3a 36 7d bd 64 01 93 bd
       0.17510982 -0.028060773 -0.061819293 -0.071779996
0000e0 e3 31 02 3d a5 e0 97 3d ea a3 39 bc be 77 cd 3c
       0.031785857 0.074158944 -0.011330584 0.025081512
0000f0 10 52 2f 3e 30 05 95 bc ad a3 79 3d 93 dc 3e bb
       0.17121148 -0.01819095 0.06094711 -0.0029123172
000100 26 ad 30 3d 94 5d 84 3a e3 8c 12 bd e1 0e 9e bb
       0.043133877 0.0010098689 -0.03577889 -0.004823551
000110 8e c5 8a 3e 41 f0 b8 bd 65 4e 11 3d 9b b9 5b 3e
       0.27103847 -0.090302 0.035475153 0.21457522
000120 7e 8f f6 3c fc 62 77 bd 49 28 84 bd dc 17 20 3e
       0.03009772 -0.060397133 -0.06452996 0.15634102
000130 ff c1 18 3e 3d e3 ac 3e a8 bb e2 3d 5a 37 6f bd
       0.14917754 0.3376712 0.11070949 -0.058402397
000140 5f 17 05 3d 25 d4 a2 bd 83 7c 60 3d 37 58 79 be
       0.03249299 -0.079506196 0.054806244 -0.24350058
000150 0b 6f 93 3d 46 0c b6 bd 9b bb 5d 3b cf 6c 9a 3d
       0.07198914 -0.0888906 0.0033833745 0.07540285
000160 bc a1 19 be 84 e7 83 3e 03 fc 4b bd 8a 22 36 be
       -0.15003103 0.2576257 -0.049800884 -0.17786613
000170 4e d4 a0 bb d3 12 36 be 74 d7 32 be 86 e4 10 be
       -0.004908121 -0.17780618 -0.17465001 -0.14149675
000180 97 81 d6 3d 25 0a 98 3e 6c 1b 21 3e 20 b5 3b be
       0.10473936 0.2969524 0.15733117 -0.18330812
000190 2e 8c 28 3d ae b3 68 bd d2 42 41 3d e7 6a 81 3d
       0.04114931 -0.05681198 0.047182865 0.06319218
0001a0 42 c3 84 3d 5d 71 f3 3d 3f c6 12 3d a6 ce cf 3c
       0.06482555 0.11886857 0.035833593 0.025367092
0001b0 63 49 ba 3e cc 66 19 3e 57 3a da 3e 48 c9 1b be
       0.36384115 0.1498062 0.42622635 -0.15213501
0001c0 61 89 18 be 9a 70 61 be 4e ef 27 3e e4 32 c1 be
       -0.14896156 -0.2201561 0.16399881 -0.3773414
0001d0 5f a6 2d bd 94 43 84 be 5a e6 a5 be c0 51 77 be
       -0.042394992 -0.25832808 -0.32402307 -0.24152279
0001e0 d2 ee a3 3e 44 fd 07 3e 08 dc 85 3d b6 02 10 3b
       0.32018143 0.13280207 0.06536108 0.0021974272
0001f0 c3 9e bf bc 0c cb b4 bc 92 bf a1 3d cc e7 e7 bd
       -0.023391133 -0.022069477 0.07897867 -0.113235086
000200 f9 37 70 be 50 9a 7f be a8 26 fa 3d 1c cf e1 bd
       -0.23458852 -0.2496121 0.12214404 -0.11025831
000210 a6 2b 32 be 6a 71 32 bd ba 44 65 bc 37 a4 48 bd
       -0.17399463 -0.04356519 -0.0139934365 -0.048984732
000220 90 de d6 3e 59 86 b8 bd 52 16 3b 3e 73 59 3a be
       0.41966677 -0.0901 0.18270233 -0.18198185
000230 a0 27 6d be fe b8 fb 3b d1 73 d0 3a 46 ce 32 bd
       -0.23159647 0.007681965 0.0015903657 -0.04365375
000240 4a ad 7e be ab 1b db bd 1e be 72 bd 56 a8 a2 3d
       -0.24870792 -0.106986366 -0.05926334 0.07942264
000250 a1 c8 7d be 30 63 25 3d 53 47 74 3d 9e 50 4a be
       -0.24783565 0.040377796 0.059638333 -0.19757316
000260 10 c8 f3 3d 57 4d 49 be ac 9b 08 3f 9b 79 93 be
       0.11903393 -0.19658409 0.53362536 -0.28803715
000270 3d f1 8a 3e 62 eb 92 be b1 79 a3 3c b8 e1 08 3e
       0.27137175 -0.28695208 0.019955488 0.13367355
000280 25 fc 44 bc e1 d9 e0 bd 29 34 99 3e 00 5b a0 be
       -0.012023007 -0.10979057 0.29922608 -0.31319427
000290 08 d8 c7 bc 19 7e dc bd 27 f6 36 3e 07 db 57 bc
       -0.024395004 -0.10766239 0.17867337 -0.013174779
0002a0 6f 46 b7 be 9c a5 63 3e 02 b9 d7 bd a0 ff 13 3d
       -0.35795924 0.22231144 -0.10533334 0.036132455
0002b0 02 8e 29 3d 2a 15 a8 bc c1 63 db bd 04 7b ca bc
       0.041395195 -0.020517904 -0.10712386 -0.024716862
0002c0 46 40 31 3e 45 c8 b5 3d 9e 3f a3 bd fa 67 dd 3c
       0.17309675 0.08876089 -0.079711184 0.027027119
0002d0 ec e8 45 be ad 33 85 be d6 63 81 bc 30 6b 74 be
       -0.19327134 -0.26015988 -0.015794676 -0.23869014
0002e0 cb c9 72 3d d2 70 5b bc c8 08 a7 bc e9 f4 cb bc
       0.059274476 -0.013393598 -0.02038993 -0.024897056
0002f0 8b 9d 32 3e d6 0f 55 3e 98 85 90 bd c4 ad 34 bd
       0.1744291 0.20806822 -0.07056731 -0.04411103
000300 4d b9 3d 3b c5 a6 33 be 83 33 51 3c 06 2a 50 be
       0.002894956 -0.17544086 0.012768629 -0.2032853
000310 71 cb a2 3c cc 30 35 be 53 6a d6 3d 88 fd f8 3d
       0.019872399 -0.17694396 0.104694985 0.12157732
000320 35 ad ca be ed bd 01 3c 3b eb c6 3e 60 48 8b 3e
       -0.3958527 0.007918817 0.38851342 0.27203655
000330 f8 2f 45 be dd 16 0f 3e b8 f5 bc 3e d4 3f 67 be
       -0.1925658 0.13973565 0.3690622 -0.22582942
000340 e9 f9 79 3e 99 d0 ac bd 24 10 50 3d 37 ec 19 be
       0.2441174 -0.08438224 0.050796643 -0.15031515
000350 c2 df ee bd 97 43 1a bd 7f ba 97 3a 15 1d 5d 3e
       -0.11663772 -0.037662115 0.0011575966 0.21593125
000360 c1 7d 1a 3e 26 04 c8 3c c8 20 3a 3d 9e e3 dd 3d
       0.15087034 0.02441604 0.04544142 0.1083443
000370 9c f2 a0 3c 2f 29 a8 3c 64 80 82 be 13 15 08 be
       0.019646935 0.02052745 -0.2548858 -0.13289289
000380 a9 9a c3 bd 9a 97 ce be b5 1a 85 be 4c d4 89 be
       -0.095509835 -0.40350038 -0.25996938 -0.26919782
000390 3a d2 24 bd a7 fe d2 3d 2d d7 09 be 29 7d e6 bd
       -0.04023955 0.10302477 -0.1346099 -0.11254341
0003a0 d8 06 d0 3c 7b d9 76 bd 9a 65 17 3e 08 9f 1c be
       0.025393888 -0.060266 0.14784852 -0.1529504
0003b0 0f de cd 3c a9 79 16 bb ba 82 25 3e fd 92 6b 3d
       0.0251303 -0.0022960699 0.1616315 0.057513226
0003c0 75 cc 83 be 42 19 94 3d 66 5d e5 3c 80 fe 57 3e
       -0.25741926 0.0723138 0.027998637 0.21093178
0003d0 29 4c 89 3e c7 17 ad bd bc 2d 33 3e 33 fe 3d bd
       0.26815918 -0.08451801 0.17497915 -0.046385
0003e0 ff c3 05 bd e9 54 21 3e 80 15 5b 3e e9 12 05 be
       -0.03265762 0.15755047 0.2139492 -0.12995495
0003f0 56 93 14 bd b4 07 6f 3d fe dd 08 be ea 67 00 3e
       -0.036273323 0.058356956 -0.13365933 0.1253964

model_state f4 [96]
000000 3f 16 f1 bc db 54 9c 3d 4b ab 3e 3d 01 cb e5 bd
       -0.029429553 0.076333724 0.046550076 -0.112203605
000010 6a 48 11 be 01 22 0f bd 03 52 32 3b 99 5e 6d be
       -0.1418778 -0.034944538 0.0027209527 -0.23180617
000020 c4 8e dc bd 09 3a 34 3b 8e cd 0c be be df 86 bb
       -0.10769418 0.0027500412 -0.13750288 -0.0041160276
000030 74 41 0e be a2 0c f5 bd 70 75 96 3c 34 5c e0 bd
       -0.13892156 -0.119653 0.018366545 -0.10955086
000040 cc 82 eb 3d 29 0a 66 3c 84 66 7f bc d2 b4 b7 bc
       0.11499557 0.014040508 -0.0155884065 -0.022425089
000050 72 4c 1c bd 71 79 de bc b5 8a 95 bd 1f 7a d2 bd
       -0.03815884 -0.027157517 -0.07301847 -0.10277199
000060 61 c0 ad bd 6d bf 3f be 2d 43 a9 bd 90 20 34 3d
       -0.08483959 -0.18725367 -0.08264766 0.043976367
000070 54 1f 8f bd 8e e3 ab bd 44 c5 99 3d b6 56 cd bc
       -0.06988397 -0.08393012 0.075083286 -0.025065761
000080 b3 e2 0e bd 0e e8 81 3c 86 52 8f 3c d5 05 ea 3b
       -0.034884166 0.015857723 0.017495405 0.0071418085
000090 90 8b e2 bc 2c 51 8c 3c 11 e2 a4 3d ae c6 3f bc
       -0.02765444 0.01712855 0.08050931 -0.011705084
0000a0 1a d2 72 bd 31 2c 0e be b2 43 a0 bd 89 00 81 bd
       -0.0592824 -0.13884045 -0.07825412 -0.0629893
0000b0 e7 e2 19 3d e6 28 ad b9 09 69 6d bd d7 23 29 3c
       0.037569907 -0.00033027603 -0.057961497 0.010323486
0000c0 15 c0 3e 3d 38 76 91 be 9f ee 73 bd bb 5c 37 bc
       0.046569902 -0.28410506 -0.05955374 -0.011191542
0000d0 2c b0 95 bd 7e 95 1e bd d6 20 f2 3b cb 0c d7 bd
       -0.07308993 -0.038716786 0.0073891683 -0.10500487
0000e0 d9 6b 8d bd 52 33 44 bd 85 c8 34 be 80 79 d6 bc
       -0.06905336 -0.047900505 -0.17654617 -0.026180983
0000f0 f6 20 80 bd cf a0 8b bd 43 74 9a 3d 97 da c1 3d
       -0.06256287 -0.06817781 0.075417064 0.09465521
000100 74 2d 04 3c a7 10 87 3d 81 4a b1 bc e0 39 9c bd
       0.0080674775 0.06594973 -0.021641972 -0.07628226
000110 b9 9e 24 bd f7 f7 ef bc 5c a2 c9 bd 0e 6c 99 bc
       -0.040190432 -0.029293044 -0.09845421 -0.018728282
000120 36 74 4e bd a3 f8 b4 bd 84 b9 03 3c 4a 77 35 be
       -0.050403796 -0.08836486 0.008039836 -0.17721286
000130 19 ff 3e be 4a d3 b6 3c 78 32 15 bd 69 b7 85 3d
       -0.18652 0.022317547 -0.036425084 0.06529123
000140 31 25 05 3e 3d dc 2b 3c 5f a1 d5 bd a0 8b 88 3c
       0.13002469 0.010489521 -0.1043117 0.01666814
000150 04 d0 27 3b ab 44 dd bb cc 06 c5 3c ce 70 3c bd
       0.0025606165 -0.0067525706 0.024051093 -0.046006016
000160 89 c0 7c 3d a1 bd 20 bd cc 11 90 3c 00 fd b5 bc
       0.061707053 -0.039243344 0.017586611 -0.022215366
000170 3c bf f5 bc 47 17 91 bd a5 aa 05 bc 81 d7 4a bd
       -0.029998414 -0.07084518 -0.008158361 -0.049521927

model_state f4 [96, 96]
000000 9d b8 8a be e8 3c f5 bd 67 4c 38 3e 4e 35 26 3d
       -0.27093974 -0.119745076 0.17997895 0.04057818
000010 05 08 ba 3d a8 77 41 be 69 18 68 bc 3b 26 cc bd
       0.09083561 -0.18893301 -0.014165976 -0.099682294
000020 44 b2 c9 3d be 49 8d bd 60 b2 0b 3e c5 05 ef bd
       0.098484546 -0.06898831 0.13642263 -0.11671022
000030 ec e5 02 3d 0f 01 09 3c 7c 3c f4 3d ff 56 76 3e
       0.03195755 0.008362069 0.11925599 0.24056624
000040 41 41 30 3c 39 25 e6 b9 97 06 0c be 8a 45 58 3d
       0.010757745 -0.00043896752 -0.13674389 0.052800693
000050 a8 b3 4b be 74 ea 2b 3b 16 c6 ef 3d b2 6d a6 3d
       -0.19892752 0.0026232274 0.11707704 0.081263915
000060 61 1d 93 bd c2 c8 34 bd 3d 56 27 3e 2e f6 7f bd
       -0.07183338 -0.04413677 0.16341491 -0.062490635
000070 d5 e6 d0 3d bc 4f ab bd 35 4a 2a be 69 6d e3 bd
       0.10200278 -0.083648175 -0.1662987 -0.11104853
000080 aa cc 26 3e bd 5f 03 be 33 0f 50 3e 81 0f 08 be
       0.1628901 -0.1282949 0.20318298 -0.13287164
000090 26 3f 01 bd 92 f5 1f bd 98 43 8e be d8 5f 5f bc
       -0.031554364 -0.039052553 -0.27785945 -0.013633691
0000a0 4c 7f 36 3e 9f ee 6a be bd 21 87 ba 2e 78 63 bd
       0.17821997 -0.22942589 -0.0010309737 -0.055534534
0000b0 c3 22 03 bd 20 9f b3 bd da 9a 71 3c 2f f8 6d 3c
       -0.032015573 -0.08770585 0.014746392 0.014524504
0000c0 a4 49 64 bd be 38 1a 3e 30 83 29 3e 35 4f 5f bd
       -0.05573429 0.15060708 0.1655395 -0.054518897
0000d0 d0 fc f0 3b 92 cb 71 3d 23 7d de bd 18 12 84 bc
       0.0073543563 0.05903203 -0.10863712 -0.016121909
0000e0 48 e7 2b bd de 16 92 b7 42 df 7f be 3b 12 03 3d
       -0.041968614 -1.7415205e-05 -0.2498751 0.031999808
0000f0 c1 d4 c6 3d 4f 7a 49 be 8b c0 24 3d 90 a4 2a be
       0.09708548 -0.19675563 0.040222686 -0.16664338
000100 df 03 88 be d6 de 74 3d 34 dd 64 be 03 77 31 be
       -0.26565453 0.059782825 -0.22350007 -0.17330556
000110 92 77 36 bd 8f 8e 07 3e 00 0a 54 be 42 f1 2c be
       -0.044547625 0.13237976 -0.2070694 -0.16888908
000120 9a 82 ed 3d 94 48 df bc 88 34 ca 3c e4 0f 94 3d
       0.11597176 -0.027256288 0.024683252 0.072295934
000130 55 6d cf bd ad 10 9e ba fa 79 21 be f7 49 84 3e
       -0.10128275 -0.0012059413 -0.15769187 0.2583768
000140 bb 66 05 be 43 ec c0 3d 43 a2 a7 bc 6d e4 9f 3d
       -0.1302747 0.09420063 -0.020463115 0.07807241
000150 06 02 08 3c fb e3 cc bd 0c d5 86 3e 17 54 d2 3c
       0.008301264 -0.10004421 0.26334417 0.025674863
000160 38 02 b3 bd 4d 7b 97 3e d4 8c 5e 3e 4b 28 91 bc
       -0.087406576 0.2958626 0.21733409 -0.017719408
000170 bd 12 20 bd 9b 3c 0c 3b a2 c7 59 bd 4a ae 1e be
       -0.03908037 0.0021398428 -0.0531689 -0.15496174
000180 13 09 5f 3e 57 b5 2b be 25 27 27 bc 85 e3 28 3e
       0.21780805 -0.16768394 -0.010202204 0.16493042
000190 c4 52 a5 3e 9f 0a 1e 3e 54 4f e8 bd d6 a3 da 3d
       0.32289708 0.15433739 -0.11343256 0.106757805
0001a0 64 bb 85 3d a9 2b f5 3d 1d 95 cb bd 27 3a 6c 3d
       0.065298826 0.11971218 -0.099405505 0.057672646
0001b0 06 d7 ad 3d 13 ae 15 be 79 09 c0 bd 8f e0 44 3e
       0.08488278 -0.14617185 -0.09376807 0.19226287
0001c0 13 05 2c bd 99 9e 15 be a9 f0 df bd 8e 4c 96 3d
       -0.041997027 -0.14611281 -0.10934574 0.073388204
0001d0 af 41 bd 3e 9d 7e 05 be 6d fd dd bc b9 aa 84 3e
       0.36964175 -0.1303658 -0.027098382 0.259115
0001e0 85 c4 ad 3d af 65 15 bd 4c 86 fc bc 99 08 9b 3d
       0.08484749 -0.036473926 -0.030825756 0.07569999
0001f0 c1 38 20 be 1d b5 0e 3e 2d 40 68 3d d9 9f 2d bd
       -0.1564665 0.13936277 0.056701828 -0.04238877
000200 3a 2e da bd b5 9f 7c 3e 74 1a 2f 3c 4f 30 d4 3d
       -0.10653348 0.24670298 0.010687459 0.10360777
000210 8b 12 01 be 41 5b 57 3e 6a df c0 bc 1e e6 14 be
       -0.1260473 0.21030904 -0.023544032 -0.14540908
000220 38 81 10 3e 07 2d 0e bd 41 75 0e 3e 3e 37 94 bd
       0.14111793 -0.03471091 0.13911916 -0.07237099
000230 dc bb 98 be 50 3a 1a be 5f 28 88 3d fd 7a a5 be
       -0.29830825 -0.15061307 0.06648325 -0.32320395
000240 7a 1d d4 3d 7c 37 2c be 54 47 1c 3e 90 6d 8d be
       0.10357185 -0.1681804 0.15261585 -0.27622652
000250 e6 31 51 be 92 eb 1a 3e 54 39 dc bd 1f 43 8b bd
       -0.20429191 0.15128925 -0.10753122 -0.06799912
000260 f6 33 0a be 64 79 1a be c6 f8 08 3e 42 ff be bd
       -0.13496384 -0.1508537 0.1337615 -0.0932603
000270 5c 69 38 be 11 e4 b1 3d b5 8c d2 3d 2f ec 54 3e
       -0.18008941 0.08686078 0.10280744 0.20793222
000280 f8 54 c7 bd bd b1 ff ba 82 4b f1 3d 92 43 57 3d
       -0.097330034 -0.0019507926 0.1178198 0.052554674
000290 10 dc 77 3e 83 59 78 bd dc 86 f0 3d 9e 0f 89 3d
       0.24205041 -0.06063224 0.117444724 0.06692432
0002a0 bc bb 13 3d eb c8 ca 3d 47 1a ec bd cd df d4 be
       0.03606771 0.09901603 -0.115284495 -0.41576996
0002b0 85 d7 14 3e 5b 2d 32 be 24 35 be 3b 89 c8 b6 bd
       0.14535339 -0.17400114 0.0058046747 -0.08924968
0002c0 1f ee e8 bd 92 2d 2d 3d b9 f4 03 3e d6 40 6f 3e
       -0.11373543 0.042279787 0.12886323 0.23364577
0002d0 64 84 cc 3d 35 48 ad bd c4 10 88 bc c2 02 72 be
       0.09986189 -0.08461038 -0.016609557 -0.23633865
0002e0 f7 33 68 3d 3c 26 ea 3d 62 13 91 be 38 55 85 3e
       0.056690183 0.11433074 -0.283351 0.2604158
0002f0 39 09 f8 bd 02 8e 0c be 47 5b 8b 3e 92 e3 fb 3b
       -0.12111134 -0.13726047 0.27218077 0.0076870406
000300 b1 2e 07 be 52 1b c2 bd a8 6f 34 be 24 24 c3 bc
       -0.13201405 -0.09477867 -0.17620718 -0.023820944
000310 d5 70 c0 3d 71 04 f8 3d 53 ac 17 3e 1b 51 7a 3c
       0.09396521 0.12110222 0.1481183 0.015278126
000320 bc 88 d1 3c df fb 53 be 61 62 77 bd ae e3 88 bd
       0.025577895 -0.2070155 -0.060396556 -0.066840515
000330 26 88 4b be a6 59 e0 bd 22 b8 1c bd 35 a7 5a 3e
       -0.19876155 -0.10954599 -0.03826154 0.21352847
000340 00 de a0 bd a7 54 24 3e e3 7c 19 be ff 66 d5 3d
       -0.07854843 0.16047917 -0.14989047 0.104200356
000350 21 b2 2b be 11 03 d7 3d 30 ac 1a be b0 80 9b bd
       -0.1676717 0.10498632 -0.15104747 -0.075929046
000360 1e 9f da 3d 62 3e 13 3e 6f 83 2b bd 55 d8 cb 3d
       0.106748804 0.14379266 -0.04187339 0.099533714
000370 d1 2d 61 3d 2c 62 7b bd db 65 8c 3d 2d 2b e1 bd
       0.054975335 -0.06137292 0.06855365 -0.10994563
000380 1d db be bd ea 37 82 3d 34 c9 e1 3d 0b 36 fd 3d
       -0.09319136 0.06358321 0.110247046 0.123638235
000390 18 98 a0 bd 46 a9 4e 3b d6 71 92 bd a2 10 a4 3c
       -0.078415096 0.0031534 -0.07150619 0.020027462
0003a0 8a 27 43 be 2c 1f 8e 3c ed f0 db 3c dc e3 03 bd
       -0.19058052 0.017348848 0.02684828 -0.032199726
0003b0 e5 66 f3 3d 73 b1 25 3e fc 48 4f be 58 d5 c8 3d
       0.1188486 0.16180973 -0.20242685 0.09806317
0003c0 9d 10 76 3d 7b 78 cd 3d 40 cf ab bc 64 04 d5 be
       0.060074437 0.100327455 -0.020972848 -0.41604912
0003d0 da 73 2b 3d 00 da c7 bd 6c 6d ba bd a4 37 d4 3d
       0.04185853 -0.09758377 -0.09102902 0.10362175
0003e0 20 df 9b bd 1d cd 04 be 18 20 37 3e ec 86 58 bc
       -0.07610917 -0.1296887 0.17883337 -0.013215762
0003f0 8a 9d 15 3d c3 db 6b 3e a2 69 60 bd 47 85 86 be
       0.036527194 0.23033051 -0.05478824 -0.26273558

model_state f4 [96]
000000 de b0 f5 bb d3 6d 44 3d a2 98 d7 3b ca b9 a0 bd
       -0.007497891 0.0479563 0.0065794745 -0.078479365
000010 d0 e5 56 3c ad 36 93 bd f8 65 bd 3d e9 5e b8 bd
       0.013116315 -0.07188163 0.092479646 -0.09002478
000020 aa 7c c0 3d 23 a3 88 3d 50 a8 b8 bc 62 0a ad 3d
       0.09398778 0.06671741 -0.022541195 0.08449246
000030 a5 8c b2 3c 6c 74 9f bd 44 29 20 bd 6b 6d 5a bc
       0.02179558 -0.077858776 -0.039101854 -0.013331751
000040 21 07 b2 bd 7a c7 a7 3d 83 aa 88 3c eb 5f 9b bc
       -0.08692766 0.08192344 0.016682869 -0.018966636
000050 23 76 27 bc 3a 5a 76 3d 94 4d 25 3d 5e 88 48 3d
       -0.010221037 0.06014464 0.040357187 0.048958175
000060 52 b3 6b 3d ef 8b a7 bc 9f 53 dc 3c fe 40 8b bd
       0.05754406 -0.020452468 0.026895342 -0.06799506
000070 64 2f 8c bd 70 21 55 bd 84 64 8e 3d be 03 79 bd
       -0.068449765 -0.05203384 0.069527656 -0.060794584
000080 2c e8 89 3d 8d 07 7b 3d 56 0b 8a bc 5a 7a 32 3d
       0.067337364 0.061286498 -0.016851109 0.043573715
000090 35 db 59 3b 4c bf 85 3d cf 80 87 bd ba 8e 45 3c
       0.003324223 0.065306276 -0.06616365 0.012057954
0000a0 42 9e a5 bb e8 ad 44 bd 23 ea 6a bd 9d 64 b3 3d
       -0.005054266 -0.048017412 -0.057352196 0.08759425
0000b0 6d 83 4f bd 13 3f 40 3c 81 dc 96 bd 78 b3 ff bd
       -0.050662447 0.011733788 -0.073662765 -0.12485403
0000c0 e4 57 98 bc b0 3e 85 3d 1d d6 f6 3c 23 ed 85 bd
       -0.018596597 0.06506097 0.030131394 -0.06539371
0000d0 99 32 aa bc 5f ca 69 bd 96 d0 dc 3d 58 ae 04 3e
       -0.02077608 -0.05707776 0.10781972 0.12957132
0000e0 bf c2 98 bd 56 07 69 bd eb bf 6b 3d d3 6b 03 bd
       -0.0745902 -0.05689176 0.057556074 -0.03208525
0000f0 95 b7 c6 bc dc 43 5a 3d 10 68 2c bd d1 0c bc bd
       -0.02425746 0.053287372 -0.04209143 -0.09182132
000100 55 7d df bd c0 64 81 bd a4 3b f5 bc 8a 99 20 3c
       -0.10912577 -0.06318045 -0.029935665 0.009802232
000110 6d 55 93 3d 57 ca 0a 3d df 8d 59 bb 3c c4 9a 3d
       0.07194028 0.033884373 -0.0033196134 0.0755696
000120 5a e9 fe 3c 07 a0 df 3d 00 a4 b9 3d 5b ee ef bd
       0.03111713 0.10919195 0.09064484 -0.117153846
000130 54 01 65 3d 42 e5 8b 3a e0 69 93 bd c3 c7 63 3d
       0.05590947 0.0010673183 -0.071979284 0.05561043
000140 e5 7b fb 3c 99 d2 c8 bd da 8f 0c bd 12 c3 ad 3d
       0.030698726 -0.09805793 -0.034316875 0.08484472
000150 1e 91 3d 3d c4 ae d9 3c dc 82 9e bd 65 dc 5a 3d
       0.046280973 0.026572593 -0.07739803 0.05343284
000160 fb 0a b3 bd 3d 74 9b bc e0 27 97 3c 18 22 b5 3d
       -0.08742329 -0.018976325 0.018451631 0.088443935
000170 b0 28 2d bc 4c bd 82 bd 6a 35 e6 3d f6 6f 40 3c
       -0.010568783 -0.06383762 0.11240657 0.011745444
